KMS/model_epoch_12.pth (torch, 314530 bytes, 44 tensors)

initial_conv.weight f4 [64, 3, 3, 3]
0	0xbd4d8984	-0.050179973
1	0x3d0313f4	0.03200145
2	0xbdede971	-0.11616791
3	0x3e126ab9	0.14298524
4	0xbdf732f2	-0.12070264
5	0x3e08ac65	0.13347013
6	0xbd453217	-0.048143473
7	0x3dc2eb18	0.09517497
8	0xbbc0f4d0	-0.005888559
9	0x3d97b948	0.074083865
10	0x3d1aadb8	0.037763327
11	0xbd2e8a16	-0.042612158
12	0x3d225de4	0.039640322
13	0x3defab99	0.117026515
14	0xbe3c2f93	-0.18377523
15	0xbd3a0c3b	-0.04542182
16	0x3ddc2e08	0.10750967
17	0xbe35d2c0	-0.17756176
18	0x3c5383b3	0.0129098175
19	0x3b3e6917	0.0029054338
20	0x3d470361	0.048587207
21	0xbc58d6dc	-0.01323482
22	0xbdc2fbcb	-0.09520682
23	0xbe0ce616	-0.13759646
24	0x3e03bd8e	0.12865278
25	0x3e3219bf	0.17392634
26	0xbe1dc131	-0.15405728
27	0x3cc6d95f	0.024273572
28	0xbe0d23b8	-0.13783157
29	0x3e012073	0.12610035
30	0x3da74b9e	0.0816872
31	0x3dadcd48	0.0848642
32	0x3c87ad3f	0.016562102
33	0xbd9eee99	-0.07760353
34	0x3e33a236	0.17542347
35	0xbdff91e7	-0.124790005
36	0x3e29bf61	0.16576912
37	0xbe2a2563	-0.16615824
38	0x3d840c72	0.06447686
39	0x3e122c58	0.14274728
40	0xbdbab0bb	-0.0911574
41	0xbe0dae1c	-0.13835949
42	0x3e037c0b	0.12840287
43	0x3e2eb66c	0.17061776
44	0xbe0700ce	-0.131839
45	0xbe1c6537	-0.15272985
46	0x3c9e9e90	0.019362718
47	0xbe32dcea	-0.17467085
48	0x3e278283	0.1635838
49	0xbe289b31	-0.16465451
50	0xbc3eab7f	-0.011637568
51	0x3ddca529	0.10773689
52	0x3d89d216	0.06729524
53	0xbd14735e	-0.036242835
54	0xbdcc1f97	-0.09966963
55	0xbe3fe0b3	-0.1873806
56	0x3e07093d	0.13187118
57	0xbc0c99ae	-0.008581562
58	0x3e1d03f3	0.15333538
59	0x3d316296	0.04330691
60	0xbe213f18	-0.15746725
61	0xbd081e33	-0.033231925
62	0x3e3fff98	0.18749845
63	0xbe300ea2	-0.17193082
64	0xbba587ba	-0.0050515803
65	0x3e1d1dc1	0.15343381
66	0x3d8f1a4d	0.06987438
67	0xbe41550a	-0.18880096
68	0x3ddf3701	0.10899163
69	0x3cde47cb	0.027133843
70	0xbe45eab8	-0.1932782
71	0x3ccb5287	0.024819626
72	0xbe1d6c45	-0.15373333
73	0x3e1d3ee4	0.15356022
74	0x3d13cb59	0.0360826
75	0xbdc6df6d	-0.09710584
76	0x3e3915fe	0.18074796
77	0x3da6f5b8	0.08152336
78	0x3dbb4ec8	0.09145886
79	0x3dcdd086	0.10049538
80	0xbdf5a80f	-0.11994945
81	0x3e272a79	0.16324796
82	0xbe2f3eac	-0.17113751
83	0x3d2847db	0.04108415
84	0xbe240539	-0.16017617
85	0xbd17efe7	-0.037094023
86	0xbdc140c5	-0.09436182
87	0xbd5893dd	-0.05287539
88	0xbbd59c8a	-0.006518905
89	0xbe03b19b	-0.1286072
90	0x3cec638a	0.028856058
91	0x3cd85afc	0.026410572
92	0x3e0303c6	0.12794408
93	0x3bd3e1f9	0.006466147
94	0x3e2ca061	0.16858055
95	0xbe13b978	-0.1442622
96	0xbe088034	-0.13330156
97	0xbce96dae	-0.028494682
98	0x3d03c560	0.032170653
99	0xbda62b31	-0.08113707
100	0x3deb3fae	0.11486755
101	0xbe16d0af	-0.14728044
102	0x3d6fa58c	0.058507487
103	0x3e1f3634	0.1554802
104	0x3e45fe3d	0.19335265
105	0xbc295128	-0.010334291
106	0xbdc9d8b3	-0.09855785
107	0x3e1f8507	0.1557809
108	0xbdc5d801	-0.0966034
109	0xbe26c352	-0.16285446
110	0xbe47ee3a	-0.1952447
111	0xbb84d42e	-0.004053614
112	0x3d9d621c	0.076847285
113	0x3e0a98fe	0.13534924
114	0xbe2903d3	-0.16505365
115	0x3d307aca	0.04308585
116	0x3d86217d	0.06549356
117	0xbd0e6eca	-0.034773625
118	0x3e4bdb51	0.19907881
119	0x3cfd6512	0.030931983
120	0xbdf55810	-0.11979687
121	0x3cf958ec	0.030437909
122	0x3c870f52	0.016486797
123	0xbe06b4b9	-0.13154878
124	0x3e25a2de	0.1617541
125	0x3e2a081f	0.1660466
126	0x3adb84fd	0.0016748008
127	0xbd8375a9	-0.06418926
128	0xbe4a0d82	-0.19731715
129	0x3d7be94c	0.061501786
130	0xbe116d20	-0.14201784
131	0x3d4a0395	0.049319822
132	0x3abb7a26	0.0014303371
133	0x3e350d39	0.17680825
134	0x3d04b534	0.03239937
135	0x3cbb966b	0.022898873
136	0x3d13666e	0.035986356
137	0x3e3ed4ab	0.18635814
138	0x3dbe11cf	0.092807405
139	0xbe14f095	-0.145449
140	0x3d1b75d4	0.037954167
141	0xbe102c70	-0.14079452
142	0x3e22a227	0.15882169
143	0xbdad620d	-0.08465967
144	0xbdeae524	-0.11469486
145	0x3d9fe0c9	0.07806546
146	0x3dfd6c61	0.12374187
147	0xbe2f8d29	-0.17143692
148	0xbe2e0ef1	-0.16997887
149	0xbb935052	-0.004495659
150	0x3dfbdb20	0.12297654
151	0x3e347ca5	0.17625673
152	0x3e2d5702	0.16927722
153	0xbe01f5f5	-0.12691481
154	0x3dad4dfb	0.08462139
155	0x3dda295f	0.10652422
156	0xbd22482d	-0.039619613
157	0x3d333145	0.04374816
158	0xbe28777a	-0.16451827
159	0xbe3ccfc6	-0.18438634
160	0xbda8fb9f	-0.08251118
161	0x3db699c0	0.08916044
162	0xbde1bbaf	-0.11022126
163	0xbd1b0b74	-0.03785272
164	0x3bb9ab1b	0.0056661493
165	0xbe098ee8	-0.1343342
166	0x3e37865f	0.17922352
167	0xbe0639d4	-0.13107997
168	0x3e45331f	0.19257782
169	0xbd736490	-0.059422076
170	0xbc15cedc	-0.009143557
171	0xbe43fba0	-0.19138956
172	0x3dbc6825	0.091995515
173	0xbe426a80	-0.18985939
174	0xbae903f1	-0.0017777664
175	0xbe1158b0	-0.14193988
176	0x3da8e2dd	0.08246396
177	0xbe00adbe	-0.12566277
178	0xbd966d99	-0.07345123
179	0x3c9f39a0	0.019436657
180	0xbd08cedc	-0.0334004
181	0x3cb58ffd	0.022163386
182	0x3e4f4af3	0.20243435
183	0xbc829e04	-0.015944488
184	0x3ded5855	0.115891136
185	0xbd79470a	-0.060858764
186	0x3cc19daa	0.02363475
187	0x3e3aaab0	0.18229175
188	0x3d386fd0	0.045028508
189	0xbe0a5f3c	-0.13512892
190	0x3e3b14f4	0.18269712
191	0x3c855a6a	0.016278464
192	0xbe1e734d	-0.15473671
193	0xbda34466	-0.0797203
194	0x3e3ddcc2	0.18541244
195	0xbd3e7bb0	-0.046504676
196	0x3e317a2b	0.1733176
197	0xbca73b14	-0.020413913
198	0x3db84731	0.08997954
199	0xbd199bca	-0.037502088
200	0x3e2b6bed	0.16740389
201	0xbe5a1997	-0.21298824
202	0xbe36a6ea	-0.1783711
203	0x3dda7b91	0.106681
204	0xbde38b08	-0.111105025
205	0x3d731cbb	0.05935357
206	0xbcc6330e	-0.024194267
207	0x3d375bd2	0.0447653
208	0xbd1650b7	-0.03669807
209	0x3d9a69a2	0.07539679
210	0xbdd1292e	-0.102129325
211	0xbd730520	-0.05933106
212	0x3e25fb7d	0.16209216
213	0xbc3da3d0	-0.0115747005
214	0xbe4bed66	-0.19914779
215	0x3e33fbff	0.17576598
216	0xbca9aae8	-0.020711377
217	0xbe30e2d8	-0.17274034
218	0x3ce9ea67	0.028554155
219	0x3e1bc980	0.15213585
220	0xbe33730f	-0.1752436
221	0x3e224935	0.15848239
222	0x3d6aa338	0.057284564
223	0xbe049484	-0.12947279
224	0x3e14c725	0.14529093
225	0x3ce33a2c	0.0277377
226	0x3cc7b38b	0.024377605
227	0xbd8d06fe	-0.06886099
228	0x3e3aa296	0.18226084
229	0xbdb9f29d	-0.09079478
230	0x3e2c5078	0.16827571
231	0x3e04de15	0.12975343
232	0xbcf1d8dc	-0.029522352
233	0x3c99b603	0.018763548
234	0x3d06bd03	0.0328951
235	0x3ceb379a	0.028713036
236	0xbe13ebcd	-0.1444542
237	0x3d624380	0.055240154
238	0xbe0db39d	-0.13838048
239	0xbe33fffa	-0.17578116
240	0x3e0da434	0.1383217
241	0xbc55f312	-0.013058441
242	0xbdbd8144	-0.09253171
243	0xbbdcc5e2	-0.0067374567
244	0xbe080c84	-0.13286024
245	0x3e171c32	0.1475685
246	0xbd5bb9dc	-0.053644046
247	0xbe22fcd1	-0.15916754
248	0x3a82ebd4	0.0009988495
249	0x3e3881fa	0.18018332
250	0xbd165699	-0.03670368
251	0x3de40865	0.11134414
252	0x3e11af53	0.14227037
253	0x3dd824be	0.10553883
254	0xbc3eef26	-0.011653697
255	0xbe2edaf0	-0.17075706

initial_conv.bias f4 [64]
0	0x3db21841	0.08696032
1	0xbd03a6e2	-0.032141574
2	0xbe2924d8	-0.16517961
3	0x3d008da8	0.031385094
4	0x3ddfc75d	0.109266974
5	0xbe08d059	-0.13360728
6	0xbe15fe5d	-0.14647813
7	0xbd29998a	-0.041406192
8	0x3d1d2b5c	0.03837143
9	0xbe21b7f9	-0.15792836
10	0xbe4364d6	-0.19081435
11	0x3bc4c72d	0.006005189
12	0x3cf2f827	0.029659344
13	0x3d537a77	0.051630463
14	0xbdd8928b	-0.10574826
15	0xbdeef771	-0.116682895
16	0xbd1c9713	-0.038230013
17	0x3cc4d524	0.024027415
18	0x3daf7318	0.08566874
19	0x3b8a8a8d	0.0042279423
20	0xbd1cb1c8	-0.038255483
21	0x3d7dd4be	0.061970465
22	0x3e0a5c84	0.13511854
23	0xbdf45ce1	-0.11931778
24	0xbd2d9413	-0.042377543
25	0x3e21a147	0.15784179
26	0xbe02720d	-0.1273882
27	0xbde200d1	-0.11035312
28	0x3e0c8cbe	0.13725564
29	0x3e40bb62	0.18821481
30	0x3e30d6a9	0.17269386
31	0xbe276054	-0.1634534
32	0xbe23c31d	-0.15992399
33	0xbe143364	-0.14472729
34	0xbd426445	-0.047458906
35	0x3de5076c	0.11183056
36	0x3e418aad	0.18900557
37	0xbe3f0808	-0.18655407
38	0x3db7dde2	0.08977868
39	0x3da751d7	0.081699066
40	0xbd1f2e8a	-0.038862742
41	0x3db92289	0.0903979
42	0xbe15a4bc	-0.14613622
43	0x3df56e18	0.11983889
44	0x3e25b54e	0.16182443
45	0xbc27947d	-0.010228273
46	0x3dd60cfd	0.10451696
47	0xb9525125	-0.0002005739
48	0x3d8c6551	0.06855262
49	0x3e02b8fd	0.1276588
50	0x3d2e5e7b	0.042570572
51	0xbdd4dbb7	-0.1039347
52	0xbe195846	-0.1497508
53	0x3d709ecf	0.0587452
54	0x3e132da1	0.14372875
55	0xbe27257c	-0.16322893
56	0x3d3ab354	0.045581177
57	0x3e207886	0.15670976
58	0x3e11304c	0.1417858
59	0xbe08a68d	-0.13344784
60	0x3dd0c5b2	0.101939574
61	0x3db0a1c9	0.08624608
62	0x3db47b8e	0.08812629
63	0x3d278914	0.040902212

blocks.0.beta f4 [1, 64, 1, 1]
0	0xbd83b11d	-0.06430266
1	0x3d8bbd28	0.06823188
2	0x3df2eb4c	0.118612856
3	0x3db53b28	0.08849174
4	0xbd986c32	-0.074425116
5	0x3db6f4fc	0.08933446
6	0xbda8ee74	-0.08248606
7	0xbd9685c6	-0.07349734
8	0x3dab3ddd	0.08361409
9	0x3d7772dc	0.060412273
10	0xbd675b3b	-0.05648349
11	0x3dcdcdf7	0.1004905
12	0x3d85b3ed	0.06528459
13	0x3d1fc266	0.039003752
14	0xbd839a85	-0.06425957
15	0x3d6413b2	0.055682845
16	0x3dace020	0.08441186
17	0x3d20bfd7	0.039245453
18	0x3d960a97	0.073262386
19	0xbc053d1f	-0.008132248
20	0xbd44f8bc	-0.048088774
21	0xbd203a85	-0.03911831
22	0xbd68523e	-0.056719057
23	0xbd21395c	-0.039361343
24	0xbdaa3db0	-0.08312547
25	0x3d740a18	0.05957994
26	0xbc78f657	-0.015195451
27	0x3aa5d1cd	0.0012651026
28	0x3d8af00e	0.06784068
29	0xbd2742a7	-0.04083505
30	0x3d8461e9	0.064639874
31	0x3ceba77f	0.028766392
32	0x3d5a7f5d	0.05334412
33	0x3d5df0cf	0.05418473
34	0xbdbe94b8	-0.093057096
35	0xbca82d61	-0.02052945
36	0x3dc2cb2a	0.09511407
37	0x3e278813	0.16360502
38	0x3d865b8f	0.06560432
39	0x3ca73d7b	0.020415058
40	0xbd9a504e	-0.07534848
41	0xbdb6f4d9	-0.0893342
42	0x3c561ea7	0.0130688315
43	0x3cc2f28f	0.023797302
44	0x3d859a84	0.06523612
45	0xbd398efb	-0.045302372
46	0xbc9bf008	-0.019035354
47	0x3d96eafd	0.07369039
48	0x3da9e8c4	0.0829635
49	0x3d9387b0	0.07203615
50	0x3c91d572	0.017801974
51	0x3da3ab27	0.07991629
52	0x3d0dd340	0.03462529
53	0xbdd11eba	-0.10210939
54	0xbd6d527b	-0.057939988
55	0xbd7a3104	-0.0610819
56	0xbdc8cdcd	-0.098048784
57	0x3db95c51	0.09050811
58	0xbd4cf7a9	-0.050040875
59	0xbd870a95	-0.06593815
60	0xbdba3107	-0.090913825
61	0x3d0caf80	0.034347057
62	0xbb87db28	-0.0041459985
63	0xbd31bd33	-0.043393325

blocks.0.gamma f4 [1, 64, 1, 1]
0	0x00000000	0.0
1	0x00000000	0.0
2	0x00000000	0.0
3	0x00000000	0.0
4	0x00000000	0.0
5	0x00000000	0.0
6	0x00000000	0.0
7	0x00000000	0.0
8	0x00000000	0.0
9	0x00000000	0.0
10	0x00000000	0.0
11	0x00000000	0.0
12	0x00000000	0.0
13	0x00000000	0.0
14	0x00000000	0.0
15	0x00000000	0.0
16	0x00000000	0.0
17	0x00000000	0.0
18	0x00000000	0.0
19	0x00000000	0.0
20	0x00000000	0.0
21	0x00000000	0.0
22	0x00000000	0.0
23	0x00000000	0.0
24	0x00000000	0.0
25	0x00000000	0.0
26	0x00000000	0.0
27	0x00000000	0.0
28	0x00000000	0.0
29	0x00000000	0.0
30	0x00000000	0.0
31	0x00000000	0.0
32	0x00000000	0.0
33	0x00000000	0.0
34	0x00000000	0.0
35	0x00000000	0.0
36	0x00000000	0.0
37	0x00000000	0.0
38	0x00000000	0.0
39	0x00000000	0.0
40	0x00000000	0.0
41	0x00000000	0.0
42	0x00000000	0.0
43	0x00000000	0.0
44	0x00000000	0.0
45	0x00000000	0.0
46	0x00000000	0.0
47	0x00000000	0.0
48	0x00000000	0.0
49	0x00000000	0.0
50	0x00000000	0.0
51	0x00000000	0.0
52	0x00000000	0.0
53	0x00000000	0.0
54	0x00000000	0.0
55	0x00000000	0.0
56	0x00000000	0.0
57	0x00000000	0.0
58	0x00000000	0.0
59	0x00000000	0.0
60	0x00000000	0.0
61	0x00000000	0.0
62	0x00000000	0.0
63	0x00000000	0.0

blocks.0.conv1.weight f4 [64, 64, 1, 1]
0	0xbd30d7d2	-0.043174572
1	0xbdb652e5	-0.089025296
2	0x3dc64b9f	0.09682392
3	0x3d1ed531	0.038777534
4	0xbe503e7b	-0.20336334
5	0x3d122ad1	0.035685364
6	0xbd5e2c7f	-0.054241654
7	0x3d50fb87	0.051021125
8	0xbd919be8	-0.07109815
9	0xbd9b509b	-0.07583734
10	0x3c481c99	0.012213849
11	0xbca88e4a	-0.020575661
12	0xbd8ed32e	-0.06973873
13	0xbd3d9d69	-0.046292696
14	0x3e95d3e3	0.2926322
15	0x3e1660d2	0.14685372
16	0xbd920da5	-0.07131509
17	0xbdc054a4	-0.09391144
18	0x3d784eda	0.060622074
19	0xbd8ff4e1	-0.07029129
20	0x3d0c5681	0.034262184
21	0xbdf1d56c	-0.11808285
22	0xbdc1d82e	-0.09465061
23	0xbd91e2f3	-0.07123365
24	0x3d8f2597	0.069895916
25	0xbd8976a5	-0.06712083
26	0x3de1eea3	0.110318445
27	0x3cd54aa0	0.02603656
28	0x3d31e6fc	0.043433174
29	0xbd05a8be	-0.03263163
30	0xbd4d4a6c	-0.050119802
31	0x3dc20e2d	0.0947536
32	0x3d03cadf	0.032175895
33	0x3e32a793	0.17446737
34	0x3da4f91b	0.080553256
35	0xbc9ebe98	-0.019377992
36	0xbd669d3d	-0.056302298
37	0x3d85c5d6	0.06531875
38	0x3d379bb3	0.04482622
39	0xbde77804	-0.11302188
40	0x3d65c56a	0.05609647
41	0x3d2f5686	0.042807125
42	0x3e42d3f7	0.1902617
43	0x3ccf6a63	0.025319284
44	0xbd4837cb	-0.048881333
45	0x3db1ca7a	0.086811975
46	0xbda3697d	-0.07979105
47	0xbdbadc39	-0.091240354
48	0x3db4556a	0.08805354
49	0xbe256bd5	-0.16154416
50	0xbd87d9d5	-0.06633345
51	0x3d5c877f	0.053840157
52	0xbd48cc8e	-0.049023204
53	0x3daaadc6	0.08333926
54	0x3daa862c	0.083263725
55	0x3e0304c6	0.1279479
56	0xbe11513b	-0.14191143
57	0xbe13872a	-0.1440703
58	0xbd91e1d5	-0.07123152
59	0x3c212aeb	0.009836893
60	0x3daf7aed	0.08568368
61	0xbdf1843e	-0.11792801
62	0x3d02ddef	0.031949934
63	0x3bb4b192	0.005514332
64	0x3b42ea0e	0.0029741558
65	0x3d55c8b2	0.05219335
66	0x3d1f74d6	0.038929783
67	0xbdcda6cd	-0.1004158
68	0xbce31805	-0.027721414
69	0x3de9a42a	0.11408265
70	0xbde80e7a	-0.11330886
71	0x3dc87a49	0.09788949
72	0x3d82e265	0.063908376
73	0xbd74ed8a	-0.059796847
74	0x3d13d5ce	0.036092572
75	0x3d5be8a8	0.053688675
76	0xb588e59c	-1.0199615e-06
77	0xbd8c4f87	-0.06851106
78	0x3b562768	0.0032677297
79	0x3d51f427	0.051258232
80	0x3cc6a795	0.024249831
81	0x3c40d8d8	0.01177045
82	0xbdd16295	-0.10223881
83	0xbd69621f	-0.05697834
84	0xbe1ae7d1	-0.15127493
85	0x3e03b131	0.12860562
86	0xbdee0b90	-0.11623299
87	0x3dbe1cfa	0.092828706
88	0xbd330ef2	-0.043715425
89	0x3e0c284b	0.13687246
90	0xbd8e54cb	-0.06949767
91	0xbdeec344	-0.11658338
92	0xbdebf164	-0.11520651
93	0x3d883b19	0.06651897
94	0xbb85291f	-0.00406374
95	0xbe31135b	-0.1729254
96	0x3d300718	0.042975515
97	0x3ccad2cc	0.024758719
98	0x3d6ae971	0.057351533
99	0xbdd72384	-0.10504821
100	0xbca9922f	-0.020699589
101	0x3d2cd3b3	0.04219408
102	0xbd7b9462	-0.061420806
103	0xbdddf639	-0.10837979
104	0xbcb2fd20	-0.021849215
105	0x3df25155	0.11831919
106	0xbb31fb64	-0.0027157897
107	0x3b803162	0.003912137
108	0x3dbe7b59	0.093008704
109	0xbe03493e	-0.12820908
110	0x3e391955	0.1807607
111	0xbdecb6db	-0.115583144
112	0x3c8a02a5	0.016846964
113	0x3ddfc0e0	0.1092546
114	0x3d465910	0.04842478
115	0x3d4dcc50	0.050243676
116	0xbe379364	-0.17927319
117	0xbd81ee3a	-0.06344266
118	0xbd4ec60e	-0.05048185
119	0x3dec93c1	0.11551619
120	0x3dc6a4ae	0.09699379
121	0x3d0095d3	0.031392884
122	0xbd13ed04	-0.036114708
123	0xbbb145c5	-0.0054099285
124	0x3d66f60b	0.05638699
125	0x3e2dcfd5	0.16973813
126	0x3d812322	0.06305529
127	0x3cf66564	0.030077644
128	0xbc9deb87	-0.019277347
129	0xbde32112	-0.11090292
130	0x3ec22857	0.37921402
131	0xbd7eb81a	-0.06218729
132	0xbcb8d083	-0.022560364
133	0x3e002042	0.12512305
134	0x3df397d2	0.11894192
135	0x3e49b75c	0.19698852
136	0x3c5d0052	0.013488846
137	0x3d6000b8	0.054688185
138	0xbc582f35	-0.013194849
139	0x3d8479eb	0.064685665
140	0xb9bd6221	-0.00036122
141	0x3dd01b2b	0.10161432
142	0x3da50859	0.08058233
143	0x3de588b7	0.11207717
144	0x3c6d1b01	0.01447177
145	0xbd17fec3	-0.037108194
146	0xbdc7fbcb	-0.097648226
147	0x3c53ff46	0.01293928
148	0xbde05a17	-0.10954683
149	0xbd483d0d	-0.048886348
150	0xbb4d1a90	-0.003129635
151	0x3d847ebb	0.064694844
152	0xbbe07e75	-0.0068510124
153	0xbd6764f2	-0.056492753
154	0xbcd65495	-0.026163379
155	0x3e1407db	0.14456122
156	0xbb849373	-0.0040458976
157	0xbe2ad4c6	-0.16682729
158	0xbda3b81e	-0.07994102
159	0x3dac063f	0.08399629
160	0x3deef1a4	0.11667183
161	0x3cfd42d5	0.030915657
162	0xbe034182	-0.12817958
163	0xbd26c888	-0.040718585
164	0xbdd95d0e	-0.10613452
165	0x3e0d940d	0.13826008
166	0xbd819de5	-0.06328944
167	0x3d48d611	0.049032275
168	0xbc1cb3ee	-0.009564383
169	0x3cf06b77	0.029348118
170	0x3c5c0405	0.013428693
171	0x3c7f96c6	0.015599912
172	0xbdd9ebc6	-0.10640673
173	0xbce84345	-0.02835239
174	0xbb0ff19d	-0.002196408
175	0x3de0c96a	0.10975917
176	0xbcc06541	-0.023485782
177	0xbe071211	-0.13190486
178	0x3ced6554	0.028978981
179	0xbd50f4b3	-0.051014613
180	0xbd700753	-0.058600735
181	0x3daeedec	0.08541474
182	0x3dcfd154	0.10147348
183	0xbd4a2a13	-0.04935653
184	0x3e01dd89	0.12682165
185	0xbe3d93a4	-0.18513352
186	0xbe1d1ff3	-0.15344219
187	0xbd06d593	-0.032918524
188	0xbc881e2d	-0.016615951
189	0xbe17f90e	-0.148411
190	0xbdd42a5c	-0.10359642
191	0xbbe1d357	-0.0068916488
192	0xbd88144f	-0.066444986
193	0xbd0e8517	-0.034794893
194	0x3e297084	0.16546828
195	0xb9f437ab	-0.00046580783
196	0x3d4e2f75	0.050338227
197	0x3d296259	0.041353557
198	0x3bcf5e5e	0.006328388
199	0x3d4b0115	0.04956158
200	0xbd85f06e	-0.06539999
201	0x3ddc2c5d	0.10750649
202	0x3d3fae5f	0.046797153
203	0x3c24c793	0.010057348
204	0xbd47ad40	-0.04874921
205	0x3e19f7b7	0.15035902
206	0x3e114cad	0.14189406
207	0x3c01fdf0	0.007934079
208	0x3d624e99	0.055250738
209	0x3ce5e1ea	0.028061826
210	0xbd445e5f	-0.04794156
211	0xbe2ac337	-0.16676031
212	0xbe11eebd	-0.14251228
213	0x3d97f666	0.07420044
214	0x3db62701	0.08894158
215	0xbdc3554b	-0.09537753
216	0xbd240f68	-0.040053755
217	0xbc80b8a4	-0.015713044
218	0xbe043e8b	-0.12914483
219	0xbe33bd29	-0.17552628
220	0x3e3d7b5d	0.1850409
221	0xbd98c788	-0.074599326
222	0x3e2a359e	0.16622016
223	0xbc947ce1	-0.018125953
224	0x3e4d43b9	0.20045365
225	0x3d032450	0.032017052
226	0x3dbf7fda	0.093505576
227	0xbda38e67	-0.079861455
228	0x3b375b42	0.0027977978
229	0xbc674b86	-0.014117127
230	0x3cfcc768	0.030856803
231	0x3e010fdb	0.12603705
232	0x3cd2c111	0.025726827
233	0xbca80383	-0.020509487
234	0x3d05bf3c	0.03265308
235	0xbe300559	-0.1718954
236	0x3dc17ce5	0.0944765
237	0x3c71f01b	0.014766718
238	0xbcbac596	-0.022799294
239	0xbe0e92cf	-0.1392319
240	0x3e4d2b54	0.2003606
241	0x3e3650eb	0.17804305
242	0x3dbcfd87	0.09228044
243	0xbe24b5ca	-0.16084972
244	0xbcf09b28	-0.02937086
245	0x3d4544ef	0.048161443
246	0xbddc3d16	-0.10753839
247	0xbd309975	-0.043115098
248	0xbba41a9b	-0.0050080544
249	0xbd0f9880	-0.035057545
250	0xbe085f9e	-0.13317725
251	0x3e25e5a0	0.16200876
252	0x3d6ab276	0.0572991
253	0x3d0b4eea	0.034010805
254	0xbd8146fc	-0.06312367
255	0x3d142fee	0.03617852

blocks.0.conv2.weight f4 [64, 1, 3, 3]
0	0xbd91a0c5	-0.071107425
1	0x3e95eb47	0.29281065
2	0xbe4c8cb8	-0.19975555
3	0x3e9bfc15	0.3046576
4	0x3e2a29bb	0.16617481
5	0x3e4988fd	0.19681163
6	0xbe02b1c7	-0.12763129
7	0x3e19b2d5	0.15009625
8	0x3ddbba8f	0.107289426
9	0xbe60ce7a	-0.21953765
10	0xbe4b0cb8	-0.1982907
11	0x3e07446d	0.13209696
12	0xbc528325	-0.01284865
13	0x3e1af9d3	0.15134363
14	0x3e7dd8b9	0.24789704
15	0xbe065f4e	-0.13122293
16	0x3d9a81a0	0.07544255
17	0xbe8b02f2	-0.27150685
18	0x3e49bb52	0.19700363
19	0x3dd93163	0.10605123
20	0xbe3a73de	-0.18208262
21	0x3e8cec9d	0.27524272
22	0xbdbc4f22	-0.09194781
23	0x3e107e77	0.14110743
24	0x3e59b901	0.2126198
25	0x3ead718b	0.3387569
26	0xbd4bd3e9	-0.04976264
27	0xbe3787ff	-0.17922972
28	0xbea49c84	-0.32150662
29	0x3e0f942b	0.14021365
30	0x3dd613fb	0.1045303
31	0xbe9f2a9f	-0.31087205
32	0xbe8e8a6f	-0.2783999
33	0x3e01ba27	0.12668668
34	0xbe586c0b	-0.21134965
35	0xbe493274	-0.19648153
36	0xbe287570	-0.16451049
37	0xbe918546	-0.28421992
38	0xbe12317a	-0.14276686
39	0x3d20c322	0.039248593
40	0x3d09cb27	0.033641007
41	0xbdee4cc0	-0.11635733
42	0xbd9b72b3	-0.075902365
43	0x3e051802	0.1299744
44	0xbd8ca365	-0.068671025
45	0xbe363884	-0.17794997
46	0x3e6b3b09	0.22971739
47	0x3e410196	0.18848261
48	0xbd2b424d	-0.041811276
49	0xbe81e3d7	-0.2536914
50	0x3d7815e2	0.060567744
51	0xbe10a1b6	-0.14124188
52	0xbe12afc6	-0.14324865
53	0xbe0edf19	-0.13952293
54	0xbe0cb50d	-0.1374094
55	0x3dc425cf	0.09577524
56	0x3e5b61e5	0.21424063
57	0xbe80b33e	-0.2513675
58	0xbd5696e2	-0.052389987
59	0x3d8487e5	0.06471232
60	0x3e507753	0.20358019
61	0xbe771fff	-0.241333
62	0x3e0d03e9	0.13771023
63	0x3e10d979	0.14145459
64	0xbeab14b6	-0.3341424
65	0xbdbe54c0	-0.092935085
66	0x3de0f9a6	0.10985117
67	0x3da2f81d	0.0795748
68	0xbd81fe7e	-0.06347369
69	0xbce63b0d	-0.02810433
70	0xbe0091e6	-0.12555656
71	0xbe9182dd	-0.28420153
72	0xbde7b3d1	-0.11313594
73	0xbea46cc5	-0.32114235
74	0xbd914f9d	-0.07095263
75	0x3e8ca6aa	0.27470905
76	0x3dfe9089	0.12429912
77	0x3df9c3c3	0.12195542
78	0x3df881e8	0.12134153
79	0xbdceb725	-0.10093526
80	0x3e37536d	0.17902918
81	0xbe2ac97f	-0.16678427
82	0xbdda51ed	-0.10660157
83	0xbe13e80e	-0.1444399
84	0xbc16cbe7	-0.009203888
85	0x3e56a1d2	0.20960167
86	0x3ebacc55	0.36484018
87	0x3e226ca9	0.15861763
88	0x3e0db397	0.1383804
89	0x3e0589fe	0.13040921
90	0xbe825b8b	-0.25460467
91	0xbeae35d6	-0.3402545
92	0x3e3754bf	0.17903422
93	0xbe0a559a	-0.13509217
94	0x3d6b7280	0.057482243
95	0xbe789e91	-0.24279238
96	0xbebd6e25	-0.36998096
97	0xbe4e660a	-0.20156112
98	0x3da6e9df	0.08150076
99	0x3db0ef91	0.08639444
100	0xbda6cb65	-0.08144263
101	0xbdc4a23d	-0.09601257
102	0xbdc7b81b	-0.09751912
103	0xbea9ffbe	-0.33202928
104	0xbe4c1198	-0.19928586
105	0x3df2402f	0.11828648
106	0xbe4804e6	-0.19533119
107	0x3dbd3fb6	0.092406675
108	0xbe23bffc	-0.15991205
109	0x3e431628	0.1905142
110	0x3e024873	0.1272295
111	0x3eaea5c9	0.3411086
112	0x3ea26940	0.31720924
113	0x3c2d654f	0.010583236
114	0xbdc8ff4b	-0.09814318
115	0x3ddb76f8	0.10716051
116	0xbd8b1af2	-0.06792249
117	0xbdd1248a	-0.102120474
118	0x3d90d6af	0.07072198
119	0x3de272af	0.110570304
120	0xbd4e3163	-0.050340068
121	0x3e8e86e7	0.27837297
122	0xbe465fb9	-0.19372453
123	0x3dd69611	0.10477842
124	0x3e71ebea	0.2362515
125	0x3e7761e2	0.24158433
126	0xbb9b4383	-0.0047382726
127	0xbed04006	-0.40673846
128	0xbdc5fd27	-0.096674256
129	0xbe1be19a	-0.15222779
130	0xbdfb9d7d	-0.12285898
131	0xbeef02b0	-0.46681738
132	0xbdefc1ee	-0.11706911
133	0xbe2d9285	-0.16950424
134	0xbe0b9d75	-0.13634284
135	0xbdd81d47	-0.10552459
136	0xbca84c24	-0.02054412
137	0x3d8c71fb	0.068576775
138	0x3dc3f769	0.09568674
139	0xbc7de73b	-0.015497024
140	0x3d04936e	0.032367162
141	0x3db8a2d2	0.090154305
142	0xbeaac5ee	-0.33354133
143	0xbe126949	-0.14297976
144	0xbe2f84d7	-0.17140518
145	0xbe3f1fea	-0.18664518
146	0xbe9351d7	-0.28773376
147	0xbe32cdc6	-0.17461309
148	0x3e005898	0.12533796
149	0xbe8539e7	-0.26020738
150	0xbe67dc13	-0.22642545
151	0x3e65955d	0.22420259
152	0x3e3f2986	0.18668184
153	0xbd5ebf9a	-0.054381944
154	0x3e0931d1	0.1339791
155	0xbdecb8c0	-0.11558676
156	0xbd1c8f8a	-0.038222827
157	0xbe8f6d96	-0.28013295
158	0x3e008205	0.12549599
159	0x3d4fa572	0.05069489
160	0xbeca0cf5	-0.3946301
161	0xbeb4cff4	-0.35314906
162	0x3e17d2ba	0.1482648
163	0x3ec06490	0.37576723
164	0x3dffc50e	0.12488757
165	0x3e1c1a8f	0.15244506
166	0xbd7d1d2b	-0.061795395
167	0xbe1ade7e	-0.15123937
168	0x3dc22c43	0.094810985
169	0x3e1d7050	0.15374875
170	0x3d64bb3f	0.055842634
171	0xbce07e6e	-0.027404036
172	0x3d02029a	0.031740762
173	0xbe9ff1f1	-0.31239274
174	0x3e8084d0	0.25101328
175	0x3d643ef8	0.055724114
176	0x3de6f1d9	0.112765975
177	0x3d84031b	0.06445905
178	0xbd9a8bbe	-0.07546185
179	0xbeb332de	-0.34999746
180	0x3cf68b21	0.030095639
181	0x3dceee57	0.101040535
182	0x3c3dcbd7	0.011584244
183	0x3e281752	0.16415146
184	0xbdc1a7e3	-0.0945585
185	0xbe6efce5	-0.23338659
186	0xbc8c553d	-0.017130489
187	0xbeb2b30a	-0.3490222
188	0xbe7773e8	-0.24165308
189	0xbe6e8c97	-0.23295818
190	0x3e928714	0.2861868
191	0x3eb28f30	0.34874868
192	0xbe2a0314	-0.16602737
193	0xbe001f5e	-0.12511966
194	0x3eaa4228	0.33253598
195	0x3cae8091	0.02130154
196	0x3e29e7e0	0.1659236
197	0xbe010a63	-0.12601618
198	0xbeb8898d	-0.36042443
199	0xbebe2975	-0.37141004
200	0xbe1e12e8	-0.154369
201	0x3e47eefa	0.19524756
202	0x3e7147e6	0.23562583
203	0x3db32f59	0.08749265
204	0xbe080b74	-0.13285619
205	0xbda2400f	-0.079223745
206	0xbea65750	-0.3248849
207	0xbe203b8d	-0.15647717
208	0xbe951a0e	-0.2912144
209	0xbdc01dcd	-0.09380684
210	0x3d30d6b5	0.04317351
211	0x3d080cd4	0.03321536
212	0xbe1134d7	-0.14180313
213	0xbe41b045	-0.18914898
214	0x3e81c2a2	0.25343806
215	0x3e149cf8	0.14513004
216	0xbdf0103e	-0.11721848
217	0xbec5e8e7	-0.38654253
218	0x3e1c25a4	0.15248734
219	0xbd67c7e2	-0.056587107
220	0xbebad7d0	-0.36492777
221	0xbe93a280	-0.28834915
222	0x3e55ab31	0.20866086
223	0x3e4f4fcc	0.20245284
224	0xbe75552b	-0.2395827
225	0xbe378897	-0.17923199
226	0xbe487ebc	-0.19579595
227	0x3db0ea21	0.086384065
228	0xbe814337	-0.25246593
229	0xbe36321b	-0.17792551
230	0xbec45698	-0.38347316
231	0xbec39e29	-0.38206604
232	0xbed2a3d5	-0.4114062
233	0x3e64fc10	0.22361779
234	0xbdc97889	-0.098374434
235	0x3e89252a	0.26786166
236	0x3e8ec97f	0.27888104
237	0x3efbd7bb	0.49188027
238	0x3e4f7a8f	0.20261596
239	0x3f04f2a9	0.5193277
240	0xbe1db8fb	-0.15402596
241	0x3ec8a70b	0.39189944
242	0x3e97b3e8	0.29629445
243	0x3dc56d3f	0.09639978
244	0xbe9d84cb	-0.30765375
245	0xbd2ca312	-0.042147703
246	0xbe7df7e3	-0.24801593
247	0x3d4800e8	0.04882899
248	0x3c91497e	0.01773524
249	0xbea38d66	-0.31943816
250	0xbe9a206a	-0.30102855
251	0xbebaccb4	-0.364843
252	0xbe251807	-0.16122447
253	0x3e81bef1	0.2534099
254	0xbe08a23d	-0.13343139
255	0x3e164e91	0.14678408

blocks.0.conv3.weight f4 [64, 64, 1, 1]
0	0x3dbb22d9	0.09137506
1	0xbbc3cf18	-0.0059756152
2	0x3c4798fd	0.012182471
3	0xbd6e2916	-0.05814465
4	0x3c3ae79e	0.011407761
5	0x3d7dc101	0.06195164
6	0x3e199fe9	0.15002407
7	0x3d96e8f3	0.0736865
8	0x3d64a711	0.05582339
9	0x3cf35d6f	0.029707639
10	0x3cf0181e	0.029308375
11	0x3dd46969	0.10371668
12	0x3d864008	0.06555182
13	0x3da0ca0e	0.07851039
14	0xbd59dfca	-0.053191938
15	0x3d58f795	0.052970488
16	0x3c7a090d	0.015260947
17	0x3d6133c5	0.054981012
18	0x3c804607	0.015658392
19	0xbc14ae4f	-0.0090747615
20	0x3dcb7998	0.099353015
21	0x3d520bfc	0.05128096
22	0xbaa80542	-0.001281895
23	0xbdb51a09	-0.088428564
24	0x3b14ad62	0.0022686352
25	0x3d597413	0.053089213
26	0x3e421cac	0.1895625
27	0x3d99895a	0.07496901
28	0x3d616700	0.05502987
29	0x3e4e0b6a	0.20121542
30	0x3c9b12a4	0.018929787
31	0xbd5fd83b	-0.054649573
32	0xbb646232	-0.0034848568
33	0x3d769f2b	0.06021039
34	0xbcbc97c8	-0.023021594
35	0x3d531e2a	0.05154244
36	0x3d1b857c	0.037969097
37	0x3d62e8cf	0.055397805
38	0x3e0c3b86	0.13694581
39	0xbd6c4dd3	-0.057691406
40	0x3e423aae	0.18967697
41	0x3cb1e088	0.02171351
42	0x3c8a980c	0.016918205
43	0xbda1fa22	-0.07909037
44	0x3ccd6e75	0.025077084
45	0xbd9c4f2e	-0.0763229
46	0x3ca64f6c	0.020301543
47	0x3c87ede0	0.01659292
48	0x3e61a617	0.22036014
49	0xbdbe8335	-0.093023695
50	0x3d8f61cd	0.07001076
51	0x3dd755f6	0.105144426
52	0x3da6726d	0.08127294
53	0x3d374441	0.044742826
54	0x3dcc2162	0.09967305
55	0x3cd66385	0.026170501
56	0xbe138768	-0.14407122
57	0xbdbf1136	-0.093294546
58	0x3dfe7f15	0.12426583
59	0x3dc3030b	0.09522065
60	0xbb5b35f1	-0.00334489
61	0x3c92c161	0.017914476
62	0x3d76d9ce	0.06026631
63	0x3e04742f	0.12934946
64	0xbd571d4a	-0.052518167
65	0xbc2b6565	-0.010461186
66	0x3d637e40	0.055540323
67	0xbdd5cb7b	-0.104392014
68	0xbe0e0069	-0.13867344
69	0x3d7a2397	0.061069097
70	0x3d5d3949	0.05400971
71	0xbdc4ffc2	-0.096190944
72	0x3ddcd152	0.10782112
73	0xbe1e0d9b	-0.15434878
74	0x3e5bcdd0	0.2146523
75	0x3ccbd67c	0.024882548
76	0xbda2d949	-0.079516
77	0x3d00d5c3	0.03145386
78	0x3db09a4e	0.08623181
79	0xbd853d51	-0.06505836
80	0xbd8a51ca	-0.06753881
81	0xbe30f9a0	-0.17282724
82	0xbdcdd3cb	-0.10050162
83	0xbd7a588d	-0.061119605
84	0xbdd9fb5a	-0.10643645
85	0xbb480f98	-0.0030526873
86	0xbd8b59ab	-0.06804212
87	0x3d96bfe8	0.07360822
88	0x3de3610d	0.11102495
89	0x3c2100bb	0.009826834
90	0xbdb7c92f	-0.089739196
91	0xbc36eabd	-0.011164364
92	0xbe30bb80	-0.17259026
93	0xbe81191f	-0.25214478
94	0x3db9eba9	0.09078152
95	0x3d6fb64d	0.058523465
96	0xbc9e2a13	-0.019307172
97	0xbe09e534	-0.1346634
98	0x3d9f947c	0.07791993
99	0x3d685d7e	0.056729786
100	0xbdbd1ab3	-0.09233608
101	0xbcb1cb15	-0.021703282
102	0xbd79dc87	-0.061001327
103	0xbd59461e	-0.053045385
104	0xbe9f1d21	-0.3107691
105	0x3bfeeadd	0.0077794627
106	0x3dbea2f5	0.09308425
107	0x3d4f8e4e	0.05067282
108	0xbd80ba00	-0.06285477
109	0xbd71e63a	-0.05905745
110	0xbde136cd	-0.109967805
111	0xbd3b93c5	-0.04579522
112	0xbc6ca639	-0.014443927
113	0x3d1ce562	0.038304694
114	0xbd4db54d	-0.05022173
115	0xbddefdd5	-0.10888258
116	0x3db512c6	0.088414714
117	0x3d756a58	0.05991587
118	0x3dcdde24	0.100521356
119	0x3dfcead4	0.123494774
120	0x3d6de5d9	0.058080528
121	0x3de73dc4	0.11291078
122	0xbe1f62a5	-0.15564974
123	0xbd514024	-0.05108656
124	0xbd805a4b	-0.06267222
125	0xbcbaf303	-0.022820955
126	0xbcf7b088	-0.030235544
127	0x3cbf28df	0.023334919
128	0x3dca0e76	0.098660395
129	0xbc75e18e	-0.01500739
130	0x3db4c5b0	0.088267684
131	0xbdde0288	-0.108403265
132	0x3d8a7a0c	0.0676156
133	0x3e15cbf7	0.14628588
134	0x3e8da4f9	0.27664927
135	0x3df6ac4e	0.12044583
136	0x3d5dbcf7	0.05413529
137	0xbe144e1a	-0.14482918
138	0xbd45bf74	-0.048278287
139	0x3d6251fc	0.055253968
140	0x3d37d136	0.044877253
141	0x3d529edf	0.051421043
142	0xbe947a2c	-0.2899946
143	0xbd9c85e2	-0.076427236
144	0x3caf0f2e	0.021369543
145	0x3e0c26f8	0.1368674
146	0xbdff3b45	-0.12462477
147	0x3e51263a	0.20424739
148	0x3d99781a	0.07493611
149	0x3e220479	0.15822019
150	0x3e33b9a4	0.17551285
151	0xbddc6260	-0.10760951
152	0xbdfa9f1f	-0.12237381
153	0xbcc011a0	-0.023445904
154	0x3dd39c38	0.10332531
155	0x3e2dcf77	0.16973673
156	0x3e0840af	0.13305925
157	0x3db60615	0.08887879
158	0x3be5934c	0.0070060845
159	0x3d822b8a	0.06355961
160	0x3c843916	0.016140502
161	0x3dfaece2	0.12252213
162	0x3d861066	0.065460965
163	0xbd015a03	-0.031579982
164	0xbdd366ee	-0.10322367
165	0x3decbbe9	0.115592785
166	0x3e303f29	0.17211594
167	0x3b2baceb	0.0026195596
168	0x3e734de4	0.23760182
169	0xbd7baee5	-0.06144609
170	0x3aceb70c	0.0015771105
171	0x3cefafe7	0.029258681
172	0x3da0be89	0.07848842
173	0xbd8352e9	-0.06412298
174	0x3ddff971	0.10936249
175	0xbd8101e0	-0.06299186
176	0x3dfcdd1c	0.12346861
177	0xbdf4d30d	-0.11954317
178	0x3d8b4bd3	0.06801572
179	0xbda9eeb2	-0.08297481
180	0x3e1d6a2d	0.15372534
181	0x3e42326a	0.18964544
182	0x3d1fcacb	0.039011758
183	0xbc0744b2	-0.008256124
184	0x3bf4223a	0.007450369
185	0x3d06543b	0.032795172
186	0x3ca48a9e	0.02008563
187	0x3e319486	0.17341813
188	0x3e31444b	0.17311208
189	0x3def1ab7	0.11675017
190	0x3e4a1775	0.1973551
191	0x3ea20106	0.31641406
192	0xbdbebe41	-0.09313632
193	0xbcba4158	-0.022736236
194	0x3e24a99a	0.16080323
195	0x3d27d361	0.04097307
196	0x3d80a6b4	0.06281796
197	0x3e03da19	0.12876166
198	0xbde71096	-0.112824604
199	0xbe086317	-0.1331905
200	0xbd133660	-0.035940528
201	0xbcaa7ee7	-0.020812465
202	0xbd9a4769	-0.07533152
203	0x3de46d3c	0.11153647
204	0xbd93d708	-0.07218748
205	0x3d802cb0	0.062585235
206	0xbdf5fb3a	-0.12010808
207	0xbdbfcc2c	-0.093651146
208	0x3d132c47	0.035930898
209	0x3dc1f7d6	0.09471099
210	0xbe1ea605	-0.15493019
211	0x3da16795	0.07881085
212	0x3ddab93e	0.106798634
213	0x3d9c3db8	0.076289594
214	0xbe5813f9	-0.21101369
215	0x3b6c44fb	0.0036051858
216	0xbd6170e0	-0.055039287
217	0x3da747e2	0.081680074
218	0xbb802d81	-0.0039116745
219	0xbde9372d	-0.11387477
220	0x3dbec6ce	0.09315263
221	0xbde2d240	-0.11075258
222	0xbdac9914	-0.08427635
223	0xbd5ca102	-0.053864487
224	0x3d7a3c18	0.061092466
225	0x3d8ec397	0.069708996
226	0xbde17bcd	-0.11009941
227	0xbdfb8c34	-0.12282601
228	0xbe563fa4	-0.20922714
229	0xbd4714d9	-0.048603866
230	0x3e029d68	0.12755358
231	0x3e0a4ee9	0.13506664
232	0x3b9c270f	0.0047653983
233	0x3d735dc0	0.05941558
234	0x3db042f4	0.0860652
235	0xbd91c6fb	-0.07118031
236	0xbd12317e	-0.03569173
237	0xbe12c342	-0.14332297
238	0xbd9ddd64	-0.077082425
239	0xbdc8c408	-0.09803015
240	0xbd2e441b	-0.04254542
241	0xbe0086df	-0.12551449
242	0x3c1c71f5	0.009548654
243	0xbd9e8e28	-0.07741958
244	0x3c9efb36	0.019406896
245	0xbcc632e3	-0.024194187
246	0xbdd22798	-0.10261458
247	0xbdd9b3f8	-0.106300294
248	0xbdfe66b8	-0.12421936
249	0x3d8e92b2	0.06961574
250	0x3ddc02b9	0.10742707
251	0xbd7af4a3	-0.06126846
252	0x3cc1c30b	0.023652574
253	0x3d99148e	0.074746236
254	0x3d8c3231	0.06845511
255	0x3df36d7a	0.11886115

blocks.1.beta f4 [1, 64, 1, 1]
0	0xbda48ce3	-0.080346845
1	0xbda323fe	-0.07965849
2	0x3de30a7b	0.11085983
3	0x3dbdf5df	0.09275412
4	0x3d968faa	0.073516205
5	0x3d7a6ed8	0.061140865
6	0xbd688545	-0.05676772
7	0x3d9cd635	0.07658044
8	0xbd3988b1	-0.045296375
9	0xbd8e5ca6	-0.06951265
10	0xba6ae9d2	-0.00089612335
11	0x3d963ee8	0.07336217
12	0x3d07f814	0.03319557
13	0xbd8f015b	-0.069826804
14	0x3d91f978	0.071276605
15	0xbd6e7d41	-0.05822492
16	0x3dac3e0d	0.08410273
17	0xbd828de9	-0.063747235
18	0x3daf02fb	0.0854549
19	0xbd28aa9b	-0.041178327
20	0xbd4c6592	-0.049901552
21	0xbd8bf07b	-0.068329774
22	0x3d98c647	0.074596934
23	0x3d0a52b4	0.033770278
24	0xbd8865b5	-0.06660024
25	0xbd8eb331	-0.06967772
26	0x3c915067	0.017738534
27	0x3d2a09c6	0.041513227
28	0xbd2da2d6	-0.04239162
29	0xbd0b000e	-0.0339356
30	0x3d93222f	0.071842544
31	0xbcc7e1f2	-0.024399731
32	0xbdd1b4c4	-0.102395564
33	0x3d84a5be	0.06476925
34	0xbd37c409	-0.044864688
35	0x3d049e89	0.032377753
36	0x3e0288d5	0.1274751
37	0x3dcc235a	0.0996768
38	0x3d10d1cf	0.03535634
39	0xbe0a538d	-0.13508435
40	0xbd61540e	-0.0550118
41	0x3da8c884	0.0824137
42	0x3cddbe7b	0.027068367
43	0xbd52d162	-0.051469214
44	0xbdcaece4	-0.099084646
45	0x3d3bf744	0.045890108
46	0xbd22eb2d	-0.039775062
47	0xbd23d468	-0.03999749
48	0x3d91f90d	0.07127581
49	0xbdbb206d	-0.09137044
50	0x3d830af3	0.06398573
51	0xbd9c4940	-0.07631159
52	0xbd5e593f	-0.05428433
53	0xbd53bab2	-0.05169172
54	0xbd71fca3	-0.059078824
55	0xbd944536	-0.072397634
56	0xbd6e9c40	-0.05825448
57	0xbe0509d1	-0.12992026
58	0xbd862da9	-0.06551678
59	0xbd6ed60a	-0.058309592
60	0xbdad6993	-0.08467402
61	0xbda501ce	-0.08056985
62	0xbcdeb1e9	-0.027184444
63	0xbd81edc0	-0.06344175

blocks.1.gamma f4 [1, 64, 1, 1]
0	0x00000000	0.0
1	0x00000000	0.0
2	0x00000000	0.0
3	0x00000000	0.0
4	0x00000000	0.0
5	0x00000000	0.0
6	0x00000000	0.0
7	0x00000000	0.0
8	0x00000000	0.0
9	0x00000000	0.0
10	0x00000000	0.0
11	0x00000000	0.0
12	0x00000000	0.0
13	0x00000000	0.0
14	0x00000000	0.0
15	0x00000000	0.0
16	0x00000000	0.0
17	0x00000000	0.0
18	0x00000000	0.0
19	0x00000000	0.0
20	0x00000000	0.0
21	0x00000000	0.0
22	0x00000000	0.0
23	0x00000000	0.0
24	0x00000000	0.0
25	0x00000000	0.0
26	0x00000000	0.0
27	0x00000000	0.0
28	0x00000000	0.0
29	0x00000000	0.0
30	0x00000000	0.0
31	0x00000000	0.0
32	0x00000000	0.0
33	0x00000000	0.0
34	0x00000000	0.0
35	0x00000000	0.0
36	0x00000000	0.0
37	0x00000000	0.0
38	0x00000000	0.0
39	0x00000000	0.0
40	0x00000000	0.0
41	0x00000000	0.0
42	0x00000000	0.0
43	0x00000000	0.0
44	0x00000000	0.0
45	0x00000000	0.0
46	0x00000000	0.0
47	0x00000000	0.0
48	0x00000000	0.0
49	0x00000000	0.0
50	0x00000000	0.0
51	0x00000000	0.0
52	0x00000000	0.0
53	0x00000000	0.0
54	0x00000000	0.0
55	0x00000000	0.0
56	0x00000000	0.0
57	0x00000000	0.0
58	0x00000000	0.0
59	0x00000000	0.0
60	0x00000000	0.0
61	0x00000000	0.0
62	0x00000000	0.0
63	0x00000000	0.0

blocks.1.conv1.weight f4 [64, 64, 1, 1]
0	0xbd4df8ee	-0.050286226
1	0x3dd6e7d4	0.104934365
2	0xbd923b08	-0.071401656
3	0x3d282e52	0.0410598
4	0x3d94ceff	0.07266044
5	0xbd25f975	-0.040521104
6	0x3e26823c	0.16260618
7	0x3b2c004f	0.00262453
8	0xbd0863f3	-0.033298444
9	0x3df9c920	0.12196565
10	0x3ca21655	0.01978604
11	0x3cc69359	0.024240183
12	0xbd0d2f7d	-0.034469116
13	0xbe1e5986	-0.15463838
14	0xbd660789	-0.05615953
15	0x3db8bce1	0.09020401
16	0x3de4c13f	0.11169671
17	0x3de047e0	0.10951209
18	0x3da585cb	0.080821596
19	0xbd6ffeac	-0.058592483
20	0xbd7583da	-0.059940197
21	0x3d11a6ab	0.035559338
22	0x3c8fb537	0.017542465
23	0xbc0bb1eb	-0.008526306
24	0x3dd01f45	0.10162214
25	0x3d82f316	0.06394021
26	0xbe079e09	-0.1324388
27	0x3da0b017	0.078460865
28	0x3da560c9	0.08075101
29	0x3d957b4d	0.072989084
30	0xbc73dbdd	-0.014883962
31	0xbd41f283	-0.047350418
32	0xbd62dca3	-0.055386197
33	0x3e068e6e	0.1314027
34	0x3da87a6c	0.08226475
35	0x3b2052e9	0.002446348
36	0x3d84ab36	0.064779684
37	0xbb2024ff	-0.0024436114
38	0x3def8e75	0.116970934
39	0xbc8ac6fe	-0.01694059
40	0xbda1bfab	-0.07897886
41	0x3d9574d7	0.07297676
42	0x3de84063	0.11340406
43	0x3d7b2f4b	0.0613244
44	0xbdc27162	-0.09494282
45	0xbdc2f238	-0.09518856
46	0xbe10b142	-0.14130118
47	0x3ca653bc	0.0203036
48	0x3e3bd6d4	0.18343669
49	0x3dba7c8c	0.09105787
50	0x3d7364cd	0.059422303
51	0x3d6cbaf9	0.0577955
52	0x3d332e2e	0.043745212
53	0xbdfeda95	-0.12444035
54	0x3d7de7e6	0.061988734
55	0xbdc91672	-0.09818734
56	0x3dc2b6fc	0.09507558
57	0xbd9826c0	-0.07429266
58	0xbd901ace	-0.070363626
59	0x3d3ef32e	0.046618633
60	0xbcf23975	-0.029568413
61	0x3e27ea79	0.16398038
62	0xbd8a54b8	-0.0675444
63	0xbad8e666	-0.0016548156
64	0xba8a42e7	-0.0010548503
65	0x3d8e4e74	0.069485575
66	0xbd9a1a0d	-0.075245
67	0xbcc2f114	-0.023796596
68	0x3dbb1f68	0.0913685
69	0x3db5e3f4	0.08881369
70	0xbdc12acb	-0.0943199
71	0x3d3a0768	0.04541722
72	0x3e0c41fe	0.13697049
73	0xbd92a027	-0.07159453
74	0x3ccfb702	0.02535582
75	0xbaad7249	-0.0013232912
76	0xbd5f658b	-0.0545402
77	0x3e2a6c88	0.16642964
78	0xbdec681f	-0.11543297
79	0x3d209521	0.03920472
80	0xbd109363	-0.03529681
81	0xbda51773	-0.08061113
82	0x3e1207de	0.14260814
83	0xbdae1dd7	-0.08501785
84	0xbc8bd752	-0.017070446
85	0xbe076e9d	-0.1322579
86	0x3db54e18	0.08852786
87	0x3b9d9e01	0.0048100953
88	0xbc6f0a27	-0.014589823
89	0x3e1b22e7	0.15150033
90	0x3bff4931	0.0077907075
91	0x3ce80ccb	0.028326413
92	0x3d2ac0ec	0.04168789
93	0x3d762890	0.060097277
94	0x3d056d79	0.032575104
95	0xbdcbe097	-0.099549465
96	0x3d96e4ca	0.07367857
97	0xbd881c1c	-0.066459864
98	0x3dc18881	0.09449864
99	0x3da62a86	0.081135795
100	0x3dc45978	0.09587377
101	0x3d7a2b77	0.061076608
102	0xbdee6fc6	-0.11642413
103	0x3cc1ec03	0.02367211
104	0xba38952b	-0.0007041271
105	0xbde96207	-0.1139565
106	0xbd9985b7	-0.07496207
107	0x3e2721de	0.16321513
108	0x3db254b1	0.0870756
109	0xbb368739	-0.0027851595
110	0x3d86f7a4	0.065902025
111	0x3d7abdc7	0.061216142
112	0x3d1bab46	0.038005136
113	0xbd6f80cb	-0.058472436
114	0x3cb12a1b	0.021626523
115	0xbbfac988	-0.007653419
116	0xbd7adcb8	-0.06124565
117	0x3d7d1ea9	0.061796818
118	0xbd9571e7	-0.07297116
119	0x3db0158c	0.0859786
120	0x3bb21707	0.005434874
121	0x3de40d6a	0.11135371
122	0x3de2555b	0.110514365
123	0xbe1b271b	-0.15151636
124	0x3dc8c58e	0.098033056
125	0xbd1f7a63	-0.038935076
126	0x3de31e25	0.11089734
127	0xbdd5f6f2	-0.10447492
128	0x3d82c324	0.06384876
129	0x3db03e4b	0.086056314
130	0x3d4c0bcf	0.04981595
131	0x3db44d84	0.088038474
132	0xbba05914	-0.0048934314
133	0xbdcc9b88	-0.09990603
134	0xbe0f0a79	-0.13968839
135	0x3d8a6b6b	0.067587696
136	0x3a2a31e0	0.00064924173
137	0xbe0157e7	-0.12631188
138	0xbdbee16e	-0.09320341
139	0xbdc58ca4	-0.09645966
140	0x3dff7426	0.124733254
141	0xbd8d7afe	-0.069082245
142	0x3d56399a	0.052301027
143	0xbddd39c8	-0.108020365
144	0x3ddb27de	0.107009634
145	0xbb43554d	-0.0029805482
146	0x3c18ee05	0.009334092
147	0xbd8970d9	-0.06710977
148	0x3b0a08ce	0.0021062377
149	0x3cb9a4a7	0.02266152
150	0x3d83f355	0.06442896
151	0xbcb9c677	-0.022677643
152	0xbe191dcd	-0.14952774
153	0x3df29f42	0.11846782
154	0xbc9ffa0c	-0.019528411
155	0xbc79e7c9	-0.015253016
156	0xbdbb1435	-0.091347136
157	0x3c6f952c	0.014622968
158	0xbc7d4846	-0.015459126
159	0x3d9c0d51	0.076197274
160	0xbd27dd45	-0.040982503
161	0xbd238b04	-0.039927498
162	0x3b7fc69d	0.0039028295
163	0xbc9c0d67	-0.01904936
164	0x3dec7a70	0.115467906
165	0x3d9a0d88	0.07522112
166	0x3d3cd642	0.04610277
167	0xbc1b1ea0	-0.009467751
168	0x3dd2bfdd	0.10290501
169	0xbdeaef3e	-0.11471413
170	0x3d5836ff	0.052786823
171	0x3c59987f	0.013280987
172	0x3e0d89dd	0.13822122
173	0x3c6f1702	0.014592888
174	0x3e2f45f1	0.17116524
175	0x3e0a3ab7	0.1349896
176	0xbdc49245	-0.09598211
177	0xbdcbc7ac	-0.09950194
178	0x3c758a80	0.014986634
179	0xbdf24cd1	-0.11831058
180	0x3d83c239	0.064335294
181	0x3c8869a2	0.016651932
182	0x3db0f48c	0.086403936
183	0x3dccdfd6	0.10003631
184	0x3d33b718	0.043875784
185	0xbd8640f4	-0.065553576
186	0x3e16c062	0.14721826
187	0xbd9a43f1	-0.0753249
188	0xbd0d93ea	-0.03456489
189	0x3b120930	0.0022283308
190	0x3d0cc0bc	0.034363493
191	0xbc85480b	-0.016269704
192	0xbd8b6ded	-0.06808076
193	0xbd834325	-0.06409291
194	0xbdee090f	-0.116228215
195	0xbdf59da0	-0.11992955
196	0x3dc007e4	0.09376505
197	0xbcc3d2b8	-0.02390419
198	0x3c965475	0.01835082
199	0xbdc3e911	-0.09565938
200	0x3e0f8714	0.14016372
201	0xbdf670c7	-0.12033229
202	0xbdc2bf27	-0.09509116
203	0xbd921d04	-0.071344405
204	0x3e2ff11f	0.17181824
205	0x3dbc993d	0.092089154
206	0xbe1d0134	-0.1533249
207	0xbcb61670	-0.022227496
208	0x3d9e0664	0.07716063
209	0xbe1a95b2	-0.15096167
210	0x3c4ce4e7	0.012505746
211	0x3d0afbc9	0.033931527
212	0xbdd236c1	-0.1026435
213	0xbcc8563d	-0.024455184
214	0x3cff6368	0.03117533
215	0xbd196dc2	-0.03745819
216	0xbe3ae63f	-0.18251894
217	0xbddbb8cc	-0.107286066
218	0xbdf8d602	-0.12150194
219	0xbcc10cf9	-0.023565756
220	0x3d9a8d00	0.07546425
221	0xbd9bc1cf	-0.076053254
222	0xbd096355	-0.033541996
223	0x3d9f4434	0.077766806
224	0x3d40b0dc	0.047043666
225	0xbe26e1ab	-0.16297023
226	0x3d1fc1a3	0.039003026
227	0xbd314930	-0.043282688
228	0xbd2af238	-0.041734904
229	0xbdd480a8	-0.10376102
230	0x3da21b45	0.079153575
231	0xbd561f4f	-0.052275952
232	0x3e1442ea	0.1447865
233	0xbd0531e2	-0.032518275
234	0xbe1863c6	-0.1488181
235	0x3e24bdce	0.1608803
236	0x3dc6ba82	0.09703542
237	0x3d00a138	0.03140375
238	0x3bcaeb44	0.0061925966
239	0x3cc661d3	0.024216568
240	0xbd723157	-0.059129085
241	0xbe019681	-0.12655069
242	0x3df41a52	0.11919083
243	0xbd654268	-0.055971533
244	0xbcc0b0d8	-0.023521826
245	0xbd48243c	-0.04886268
246	0x3e07bf92	0.13256672
247	0xbdfdcb4f	-0.12392294
248	0x3e08baca	0.13352504
249	0x3da3b89d	0.079941966
250	0x3d999587	0.07499223
251	0xbe07f5b5	-0.13277324
252	0x3d0ee686	0.034887813
253	0xbd270ce9	-0.040783796
254	0x3de7cc90	0.11318314
255	0x3cc38e76	0.023871642

blocks.1.conv2.weight f4 [64, 1, 3, 3]
0	0xbe6467f0	-0.22305274
1	0xbdff56cc	-0.12467727
2	0xbdaae1dd	-0.08343861
3	0x3e1d48b8	0.15359771
4	0xbe7d4ef7	-0.24737154
5	0xbdae073e	-0.08497475
6	0x3d59ee6c	0.053205892
7	0x3df2822e	0.11841236
8	0x3d1b67e6	0.037940882
9	0x3e9844e9	0.29740074
10	0x3e9ef7c6	0.3104841
11	0x3def91ed	0.11697755
12	0x3ea4a6b4	0.32158434
13	0x3e0c5080	0.13702583
14	0xbd892b26	-0.06697683
15	0xbe0134d9	-0.12617816
16	0x3eb382e3	0.35060796
17	0xbe43f001	-0.19134523
18	0x3d27db29	0.04098049
19	0x3e20dfeb	0.15710418
20	0xbd78fbcb	-0.060787003
21	0x3eb2d9dd	0.34931841
22	0x3d85f82f	0.06541478
23	0x3e12b755	0.14327748
24	0x3c2d9280	0.01059401
25	0x3df0543c	0.117348164
26	0x3e3b07f0	0.18264747
27	0xbda3562d	-0.07975421
28	0x3eb13993	0.34614238
29	0xbe4d2fc4	-0.20037752
30	0x3dc00b3c	0.09377143
31	0x3cfb57b9	0.030681478
32	0xbe1ae0d8	-0.15124834
33	0x3eb984c8	0.36234117
34	0xbe6e0594	-0.23244315
35	0x3e50f95c	0.20407623
36	0x3e3d8292	0.1850684
37	0x3d1df815	0.038566668
38	0xbe6f512d	-0.2337081
39	0xbd015938	-0.031579226
40	0x3ea0c827	0.31402704
41	0x3e953e16	0.2914893
42	0xbe09ac39	-0.13444604
43	0x3da7dd46	0.081965014
44	0x3e74492f	0.23856042
45	0xbea2dc8f	-0.31808898
46	0xbe984f9c	-0.29748237
47	0x3e0a53f1	0.13508584
48	0x3df2b399	0.11850662
49	0xbdfb545f	-0.12271952
50	0xbe0288d3	-0.12747507
51	0xbe5a7f4d	-0.21337624
52	0x3e854384	0.26028073
53	0x3e8599eb	0.26093993
54	0x3da89aa3	0.082326196
55	0xbd05a5a5	-0.032628674
56	0xbe037807	-0.12838756
57	0xbd780e87	-0.06056073
58	0x3e0c669c	0.13711017
59	0xbe6c1dd9	-0.23058261
60	0x3d0b4900	0.034005165
61	0xbeb4fe37	-0.353502
62	0xbe60d2d8	-0.2195543
63	0xbde01f4e	-0.10943471
64	0xbded9697	-0.11600988
65	0xbe2e35de	-0.17012736
66	0x3cedec12	0.029043231
67	0x3e616b0f	0.22013496
68	0xbe60bda5	-0.21947344
69	0xbde946f4	-0.11390486
70	0x3e4e348f	0.20137237
71	0x3e958e79	0.2921026
72	0x3c6a192a	0.014288226
73	0xbdc725ac	-0.09723982
74	0xbc279250	-0.010227755
75	0xbe91aa4b	-0.28450236
76	0x3d710acb	0.058848184
77	0x3e814f6b	0.25255904
78	0xbe9ccd2b	-0.3062528
79	0xbe91ce2a	-0.28477603
80	0x3e96db9a	0.29464418
81	0x3eb186f3	0.3467327
82	0x3ec34843	0.3814107
83	0x3d49eabc	0.049296126
84	0xbe67bbd5	-0.22630246
85	0x3e2a0971	0.16605164
86	0x3eb6f57e	0.3573417
87	0xbe618705	-0.22024162
88	0xbe5869fd	-0.21134181
89	0xbe0a5844	-0.13510233
90	0x3e0def5e	0.13860843
91	0x3e82a72a	0.2551816
92	0xbe856404	-0.26052868
93	0x3ce88c94	0.028387345
94	0x3eae7138	0.34070754
95	0x3e2b2a53	0.16715364
96	0xbdb93c6e	-0.09044729
97	0xbe40bfc7	-0.18823157
98	0x3e082cad	0.13298292
99	0xbe9a99bf	-0.30195424
100	0x3c0497b8	0.008092813
101	0xbd1ca1bd	-0.038240183
102	0xbd2ec1a8	-0.042665154
103	0x3e8b54f3	0.2721325
104	0xbeb12e84	-0.346058
105	0xbe901b4d	-0.2814583
106	0xbe9ada43	-0.30244645
107	0x3db6a377	0.08917897
108	0xbe9dcdd6	-0.30821103
109	0xbda888c2	-0.082292095
110	0xbdb4a5f7	-0.08820718
111	0xbe3329bb	-0.17496388
112	0x3e41c728	0.18923628
113	0xbe2e6fd8	-0.17034853
114	0xbe9df194	-0.30848372
115	0xbebe3b18	-0.3715446
116	0xbea21433	-0.31656036
117	0x3eb293f3	0.348785
118	0x3ce957b9	0.028484212
119	0x3d20db72	0.03927178
120	0x3eaf9528	0.34293485
121	0x3ebb6ccb	0.3660644
122	0x3dbed580	0.09318066
123	0xbdede40a	-0.116157606
124	0xbdaa321a	-0.08310337
125	0x3dc81616	0.097698376
126	0x3e212d7a	0.15740004
127	0x3e4f8281	0.20264627
128	0x3d523d6e	0.051328115
129	0xbe1701eb	-0.14746825
130	0xbe57a4f4	-0.21059018
131	0xbe9407ac	-0.28912103
132	0xbeb81cf8	-0.359596
133	0xbe2d4ed8	-0.16924608
134	0xbeae1ec5	-0.3400785
135	0xbe69ee25	-0.22844751
136	0xbea59932	-0.3234344
137	0xbdd0b040	-0.10189867
138	0x3e313753	0.17306261
139	0x3e8fd688	0.28093362
140	0x3e58fbb7	0.21189772
141	0xbd743e58	-0.059629768
142	0xbea926c4	-0.33037388
143	0xbdcbe8ec	-0.09956536
144	0xbdb7616f	-0.08954131
145	0xbe98a91e	-0.29816526
146	0xbea28e2b	-0.3174909
147	0xbea2b6a6	-0.31779975
148	0xbe98ca87	-0.29842016
149	0x3df349c5	0.11879305
150	0xbe9060ce	-0.28198856
151	0x3d5f8848	0.054573327
152	0xbe84a1c8	-0.2590468
153	0xbeb690e3	-0.35657415
154	0xbe7f12e9	-0.24909557
155	0x3e760a69	0.24027409
156	0xbeb1ed45	-0.34751335
157	0xbe76ddb2	-0.24108008
158	0xbeb28a2e	-0.34871048
159	0x3d731584	0.05934669
160	0xbe84c5b8	-0.25932097
161	0xbe179226	-0.14801845
162	0x3ec35f78	0.38158774
163	0x3db48500	0.0881443
164	0x3e1fa314	0.15589553
165	0x3e3ccfbe	0.18438622
166	0x3ec62eff	0.3870773
167	0x3e4fd32d	0.20295401
168	0x3c59fa10	0.013304248
169	0x3da12463	0.07868268
170	0x3e6822ef	0.22669576
171	0x3e4ab519	0.19795646
172	0x3c83cd3a	0.01608907
173	0x3dfd171e	0.12357925
174	0x3e171f54	0.14758044
175	0x3db07b79	0.086173005
176	0x3e340531	0.17580105
177	0x3e9f6e88	0.31139016
178	0x3e6739f6	0.22580704
179	0xbe6432f4	-0.22285062
180	0xbe0c8b9d	-0.13725133
181	0x3d00d992	0.03145749
182	0xbddb7e61	-0.10717464
183	0x3cca8e56	0.024726074
184	0x3cea5648	0.028605595
185	0x3d8392c8	0.06424481
186	0x3e78e6ea	0.24306837
187	0xbead9c92	-0.33908516
188	0x3e3dea2f	0.18546365
189	0x3e23efd4	0.16009456
190	0xbda54075	-0.08068935
191	0xbb4586c4	-0.003014014
192	0xbe0cd7b7	-0.13754164
193	0xbe8d8eb7	-0.27647945
194	0xbeab121c	-0.33412254
195	0x3dc23f4c	0.09484729
196	0x3e04391d	0.12912412
197	0xbe3c8568	-0.18410265
198	0x3e67aa6b	0.22623603
199	0xbe7b7976	-0.24558052
200	0x3e55b0df	0.20868252
201	0xbe7b6320	-0.24549532
202	0xbe26ed7f	-0.16301535
203	0x3dd48131	0.10376204
204	0xbe9ceb6b	-0.3064836
205	0xbe53596a	-0.20639578
206	0xbdb754d2	-0.08951725
207	0xbe705f6a	-0.23473898
208	0xbe9c9185	-0.30579773
209	0xbe13e552	-0.14442948
210	0xbdb68e6f	-0.08913886
211	0xbdba2afb	-0.09090229
212	0xbb120ccc	-0.002228546
213	0xbdea2e65	-0.1143463
214	0xbe53fbe3	-0.20701556
215	0xbd4ca20c	-0.049959227
216	0xbe67c3d7	-0.226333
217	0xbe9147ad	-0.28374997
218	0x3e8a9fbb	0.2707499
219	0xbeaa497e	-0.33259195
220	0xbd1db8a8	-0.03850618
221	0xbdf6398d	-0.12022696
222	0xbdb5280d	-0.0884553
223	0x3e11b183	0.14227872
224	0x3e87c12b	0.26514563
225	0xbe2d06d5	-0.16897137
226	0xbd4e8566	-0.050420187
227	0xbe71182d	-0.23544379
228	0x3e2fe6de	0.17177913
229	0x3e385f5a	0.18005124
230	0x3e89c639	0.26909044
231	0x3e73776b	0.23776023
232	0xbb553329	-0.0032531715
233	0x3dcf502e	0.10122715
234	0xbe81efad	-0.2537817
235	0x3e2c631b	0.1683468
236	0xbe8baae3	-0.27278814
237	0xbe236b2f	-0.15958856
238	0xbeace50a	-0.33768493
239	0xbe23a1b7	-0.15979658
240	0x3e159950	0.14609265
241	0x3e23fe90	0.16015077
242	0x3e9576cd	0.291922
243	0xbd64367f	-0.055716034
244	0x3eaa7238	0.33290267
245	0x3ec91080	0.392704
246	0x3e8c5fbc	0.2741679
247	0x3ebee6b3	0.37285385
248	0x3d9c1974	0.07622042
249	0x3eaa564e	0.3326897
250	0x3e27b644	0.16378123
251	0x3eb88bff	0.3604431
252	0xbdfaa340	-0.12238169
253	0x3eb999ad	0.36250058
254	0x3e4dd406	0.20100412
255	0x3dbde7a8	0.092727005
