KMS/model_epoch_14.pth (torch, 314530 bytes, 44 tensors)

initial_conv.weight f4 [64, 3, 3, 3]
000000 dd 33 51 bd e7 38 00 3d ca 49 ef bd 52 9d 11 3e
       -0.05107485 0.031304266 -0.11683996 0.14220169
000010 dd 58 f8 bd 46 00 08 3e e9 99 48 bd b4 9b c1 3d
       -0.12126324 0.13281354 -0.048974905 0.09453526
000020 60 bf d9 bb e1 84 97 3d 0d bb 1a 3d 77 36 2e bd
       -0.006645128 0.073983915 0.03777604 -0.04253241
000030 60 20 22 3d d3 d9 ef 3d 83 2b 3c be af 73 3a bd
       0.039581656 0.117114685 -0.18375973 -0.04552048
000040 a8 40 dc 3d 83 e1 35 be 93 c5 48 3c 3a 8a 15 3b
       0.1075452 -0.17761807 0.012254137 0.0022817985
000050 c2 8a 44 3d 4c 60 64 bc 17 56 c4 bd 3e ab 0d be
       0.047983892 -0.013938975 -0.09586733 -0.13834855
000060 04 f4 02 3e 10 58 31 3e 49 a5 1e be 95 82 c0 3c
       0.12788397 0.1731875 -0.15492739 0.023499766
000070 83 ec 0d be 72 56 00 3e 87 be a6 3d 76 05 ad 3d
       -0.13859753 0.12532976 0.08141809 0.08448307
000080 a2 8e 86 3c 94 50 9f bd 4f 0b 34 3e 5b 15 00 be
       0.016425434 -0.07779041 0.17582439 -0.12508146
000090 24 c4 29 3e b1 6f 2a be f9 ac 82 3d 6d ca 12 3e
       0.16578728 -0.1664417 0.06380648 0.14335032
0000a0 33 32 ba bd 80 8d 0d be d5 d8 03 3e 0f 66 2f 3e
       -0.09091606 -0.13823509 0.12875684 0.17128776
0000b0 24 3f 07 be e1 0d 1d be 99 70 96 3c 97 2f 34 be
       -0.1320768 -0.15337326 0.018364238 -0.17596279
0000c0 21 f9 26 3e f0 8c 29 be 47 75 4f bc 58 4a db 3d
       0.16305973 -0.1655767 -0.012662238 0.10707539
0000d0 59 fc 88 3d f3 b4 19 bd 53 69 c9 bd 34 af 3e be
       0.066887565 -0.037526082 -0.09834542 -0.18621522
0000e0 e6 42 08 3e b4 ab ef bb 99 26 1e 3e 52 2b 36 3d
       0.1330677 -0.00731417 0.15444411 0.044474907
0000f0 e3 eb 1f be 4d 3d 03 bd f0 34 41 3e 1a ce 2f be
       -0.15617327 -0.032040883 0.1886785 -0.17168465
000100 d1 53 a2 bb 3e 39 1d 3e 2f 91 8f 3d d6 41 41 be
       -0.0049538394 0.15353867 0.070101134 -0.1887277
000110 6a 70 df 3d 93 cb e0 3c a3 b4 45 be c0 b5 cc 3c
       0.10910113 0.027440822 -0.19307189 0.024989009
000120 ad 4a 1c be e3 44 1e 3e 98 d7 17 3d 15 93 c4 bd
       -0.15262862 0.15455966 0.03707084 -0.09598366
000130 49 20 3a 3e ab 0a a9 3d 42 ca bd 3d 60 2f d0 3d
       0.18176378 0.08253988 0.09267093 0.10165286
000140 13 70 f3 bd 09 07 2a 3e 98 ed 2d be 53 ed 2e 3d
       -0.11886611 0.16604246 -0.16985166 0.0427068
000150 d9 d7 22 be 57 bc 15 bd 74 6f c4 bd 7e a8 57 bd
       -0.15902652 -0.036556568 -0.095915705 -0.05265092
000160 b9 13 be bb 33 91 03 be 12 9f f6 3c 51 de dc 3c
       -0.005800691 -0.12848358 0.030105148 0.026961477
000170 9a 0b 05 3e 42 a1 ea 3b c5 52 2d 3e c7 24 14 be
       0.12992707 0.0071603367 0.16926105 -0.14467154
000180 bf 12 09 be 90 16 e4 bc 82 0a 07 3d b4 ff a8 bd
       -0.13386057 -0.02784279 0.032969005 -0.082518965
000190 1e 9f e7 3d e7 70 16 be c3 6e 6d 3d 59 df 1e 3e
       0.11309646 -0.14691506 0.05796696 0.15514888
0001a0 16 44 45 3e d9 04 4c bc aa 8f cb bd b8 59 1f 3e
       0.19264254 -0.012452328 -0.09939511 0.15561569
0001b0 9c 01 c9 bd 5b 1e 28 be e7 36 49 be 10 d7 b3 bb
       -0.0981476 -0.1641783 -0.1964985 -0.005488284
0001c0 31 05 9b 3d ab 71 09 3e 85 81 2a be 2d 7d 2b 3d
       0.075693496 0.13422267 -0.1665097 0.041867424
0001d0 e4 ce 83 3d 0c e4 0f bd 6c b2 4b 3e d9 7f fc 3c
       0.06435946 -0.03512959 0.19892281 0.030822681
0001e0 0f d8 f5 bd 7b 54 f9 3c cc f1 86 3c 8e 06 07 be
       -0.120041005 0.030435791 0.01647272 -0.13186094
0001f0 b1 84 25 3e ef f7 29 3e b3 f8 53 39 ff 22 86 bd
       0.16163899 0.16598485 0.00020215176 -0.06549644
000200 2e 5d 4b be 99 11 76 3d 89 ae 12 be c5 dc 44 3d
       -0.19859764 0.060075376 -0.14324392 0.048062105
000210 04 37 53 b8 d1 b0 33 3e e9 c9 fe 3c cf 06 b9 3c
       -5.0357557e-05 0.17547919 0.031102138 0.022586254
000220 2b 92 14 3d e3 60 3e 3e 6d 96 be 3d d3 7e 14 be
       0.03627221 0.18591647 0.09306035 -0.14501505
000230 f1 09 1a 3d 9c 1d 10 be 35 66 22 3e ad ca ad bd
       0.037607137 -0.14073795 0.15859301 -0.08485923
000240 d5 a6 e8 bd d2 0d a3 3d a4 c8 ff 3d bc 31 2e be
       -0.11359946 0.079616204 0.12489441 -0.1701116
000250 1d a4 2c be 9a 57 65 bb 3f 25 fe 3d db 51 35 3e
       -0.16859479 -0.0034994842 0.12409448 0.17707007
000260 2b 92 2e 3e 4d f3 01 be 92 a3 ad 3d 18 09 da 3d
       0.17047946 -0.12690468 0.08478464 0.10646266
000270 d5 0e 22 bd 98 bd 32 3d e7 cd 28 be e0 b9 3c be
       -0.039564926 0.043637842 -0.16484796 -0.1843028
000280 e3 d9 a9 bd 33 da b6 3d 96 3b dc bd 42 23 10 bd
       -0.08293512 0.08928337 -0.107535526 -0.035189874
000290 a4 26 08 3c 85 b5 06 be be 0f 3a 3e ab 9e 03 be
       0.008309994 -0.13155182 0.18170068 -0.12853496
0002a0 10 fc 47 3e c4 30 69 bd d2 ef d6 bb 7e a9 42 be
       0.19529748 -0.056931272 -0.0065593505 -0.19009969
0002b0 9b 0e bf 3d c0 05 41 be 1e e6 e9 b9 d8 46 10 be
       0.09328958 -0.1884985 -0.00044612674 -0.14089525
0002c0 d6 60 ab 3d 13 95 fe bd a7 ff 93 bd 4a 7e aa 3c
       0.08368079 -0.124307774 -0.07226496 0.020812172
0002d0 6f b2 fd bc d6 a4 c9 3c 30 b2 51 3e 38 fb 5b bc
       -0.030968873 0.024614733 0.2047813 -0.013426594
0002e0 3a 0f f2 3d 50 d0 6f bd a4 62 d7 3c a5 44 3d 3e
       0.118193105 -0.05854827 0.026292153 0.18483217
0002f0 15 07 43 3d b4 c6 0a be 8a bf 3b 3e 6c df 8d 3c
       0.047614176 -0.13552362 0.18334785 0.01731845
000300 87 d1 1e be a4 d3 a3 bd 35 e7 3d 3e 03 31 46 bd
       -0.15509616 -0.079993516 0.1854523 -0.048386585
000310 7c d0 30 3e e7 5d a8 bc e8 ef b3 3d 16 68 20 bd
       0.1726703 -0.020552589 0.08785993 -0.039161764
000320 ec 86 2a 3e 01 4e 5c be ce 67 39 be 50 88 d6 3d
       0.16653031 -0.21514131 -0.18106005 0.10475218
000330 79 d1 e9 bd 11 d7 68 3d c4 a3 d3 bc 4d 1a 36 3d
       -0.11416907 0.05684573 -0.025834925 0.044458676
000340 71 55 16 bd ae c2 9b 3d 76 a8 d1 bd e8 95 76 bd
       -0.036702577 0.076054916 -0.102372095 -0.060201555
000350 44 c4 25 3e 62 dc 49 bc 19 2f 4c be 1f 8a 34 3e
       0.1618815 -0.01232061 -0.19939841 0.17630814
000360 9c 4d bd bc f0 ff 32 be 50 be d7 3c c3 db 19 3e
       -0.023108296 -0.17480445 0.026335865 0.15025239
000370 17 31 35 be 5d 63 20 3e bd 44 63 3d ee 49 06 be
       -0.17694508 0.15662904 0.055485476 -0.1311414
000380 96 f3 12 3e 11 89 dc 3c 99 3f c3 3c 72 76 8e bd
       0.14350733 0.026920827 0.023834037 -0.069561854
000390 af 2d 3a 3e cb a2 ba bd 07 d3 2b 3e 7a 57 04 3e
       0.1818149 -0.091130815 0.1677972 0.12923995
0003a0 f0 67 f5 bc de 45 95 3c bb 96 fd 3c 99 ca dc 3c
       -0.029956788 0.018221792 0.030955663 0.026952075
0003b0 4d da 15 be b9 17 5b 3d 12 73 0f be 66 da 35 be
       -0.14634056 0.05348942 -0.1400874 -0.17759094
0003c0 cc a4 0b 3e c3 b5 75 bc ca 98 c1 bd 16 01 95 bb
       0.13637084 -0.014996949 -0.0945297 -0.0045472486
0003d0 81 25 06 be 34 46 19 3e fa eb 53 bd 91 49 21 be
       -0.13100244 0.14968187 -0.051738717 -0.1575072
0003e0 a5 50 3e 3b ef b3 3a 3e a5 6a 0e bd 93 58 e8 3d
       0.0029039767 0.18232702 -0.034769673 0.11345019
0003f0 5f b9 12 3e 17 d5 d9 3d 46 58 2e bc fe 33 2e be
       0.14328526 0.10636347 -0.010641163 -0.17012021

initial_conv.bias f4 [64]
000000 57 8f b0 3d 23 63 e9 bc 42 df 28 be d9 26 fb 3c
       0.0862109 -0.028489655 -0.16491416 0.030658172
000010 eb ff df 3d b1 7a 06 be 1f 9f 15 be ee 58 28 bd
       0.10937484 -0.1313274 -0.14611481 -0.041100435
000020 98 e8 21 3d 2c fb 20 be 77 6a 43 be af 5f b5 3b
       0.03952846 -0.15720814 -0.19083582 0.005535088
000030 7b 25 02 3d a3 ca 49 3d d3 aa d8 bd 1e b7 ea bd
       0.031774025 0.049265515 -0.10579457 -0.11460708
000040 e1 43 11 bd 5b 36 af 3c e2 98 b0 3d 02 ed bd 3b
       -0.035465125 0.021388223 0.0862291 0.005796076
000050 7e 1f 18 bd 18 ba 78 3d db 9d 0a 3e a8 61 f1 bd
       -0.03713941 0.060724348 0.1353678 -0.117862046
000060 ab e8 30 bd 3c 9b 1d 3e 85 0c fc bd 92 ed d8 bd
       -0.04319064 0.15391248 -0.123070754 -0.10592188
000070 53 cc 0a 3e 84 2b 40 3e 19 78 2f 3e a6 10 23 be
       0.13554506 0.187666 0.17135657 -0.1592432
000080 63 1b 22 be 8a 02 14 be 40 2f 44 bd 70 ea df 3d
       -0.1583076 -0.14454094 -0.047896624 0.10933387
000090 24 29 3e 3e ac 1a 3e be c6 88 b5 3d 4d e5 a5 3d
       0.18570381 -0.18564862 0.08863978 0.08100376
0000a0 0d f8 19 bd e4 b7 b4 3d 7f dc 13 be 36 66 f3 3d
       -0.037590075 0.08824137 -0.14439581 0.118847296
0000b0 b7 74 23 3e a9 88 24 bc 7d 09 d4 3d 08 a3 45 ba
       0.15962492 -0.010042348 0.10353372 -0.0007539247
0000c0 e1 70 88 3d b6 bf ff 3d f5 34 2b 3d 54 c2 ce bd
       0.06662155 0.12487738 0.04179855 -0.10095659
0000d0 c3 4e 17 be 7b b5 73 3d 73 05 10 3e 83 2e 23 be
       -0.14776139 0.059499245 0.14064579 -0.15935712
0000e0 b9 83 3c 3d 49 90 20 3e 38 02 12 3e c4 b3 07 be
       0.046024058 0.1568004 0.14258659 -0.13252169
0000f0 b3 7b cb 3d d2 d5 af 3d 2e 5b b2 3d ea f1 28 3d
       0.09935703 0.08585705 0.087087974 0.041246332

blocks.0.beta f4 [1, 64, 1, 1]
000000 e0 c5 8a bd 51 b1 94 3d 2c b7 03 3e 75 37 be 3d
       -0.06776023 0.07260383 0.12862843 0.09287921
000010 a8 6d b4 bd 7f 91 b8 3d 63 0a cc bd 95 5d aa bd
       -0.08809978 0.09012126 -0.099629186 -0.083186306
000020 0b 65 c8 3d 3c c1 81 3d b1 f4 70 bd e4 92 d5 3d
       0.097848974 0.06335685 -0.058827106 0.10428408
000030 73 6d 8f 3d 8c d3 34 3d 05 86 8e bd 8c dd 5f 3d
       0.07003298 0.04414706 -0.06959156 0.054654643
000040 22 dd b1 3d 7b de 1b 3d 75 a9 9f 3d df 55 14 bc
       0.08684756 0.03805397 0.07795993 -0.009053676
000050 01 0c 4c bd 97 6c 1e bd 0a 2b 7a bd 08 46 30 bd
       -0.049816135 -0.038677778 -0.0610762 -0.043035537
000060 6e e4 b2 bd 4c bd 7d 3d d7 9a aa bc de 78 11 bc
       -0.08734976 0.061948106 -0.020825787 -0.008878915
000070 9a 47 8c 3d 02 85 32 bd 26 66 8a 3d 57 d8 bd 3c
       0.068495944 -0.043583877 0.067577645 0.023174448
000080 9d 05 54 3d 78 d6 70 3d e4 a9 c7 bd 1f d2 69 bc
       0.051763166 0.058798283 -0.09749201 -0.014271288
000090 ef 23 c9 3d 3f 26 32 3e 9b a6 87 3d 6e c8 b4 3c
       0.09821307 0.17397402 0.06623574 0.022068229
0000a0 2a 74 a5 bd 32 4d d4 bd 59 a0 b8 3c 72 6c c9 3c
       -0.08078797 -0.10366286 0.022537397 0.024587844
0000b0 f2 3f 8b 3d aa ff 6e bd fd 13 a3 bc ce 6d 9e 3d
       0.06799306 -0.05834929 -0.019906992 0.07735787
0000c0 f5 51 b7 3d 70 e8 ae 3d 8b c8 86 3c e0 af ae 3d
       0.08951179 0.08540428 0.016453048 0.08529639
0000d0 0e 23 0e 3d c6 8f d3 bd ed db 76 bd c4 2f 82 bd
       0.0347014 -0.10330157 -0.06026833 -0.06356767
0000e0 1d 3b e3 bd e0 3c c4 3d 1a 5d 50 bd 83 ca 8c bd
       -0.11095259 0.095819235 -0.05087004 -0.068745635
0000f0 f5 d1 b7 bd 37 2c 30 3d db fd 25 bc 81 88 35 bd
       -0.08975593 0.043010917 -0.010131325 -0.044319633

blocks.0.gamma f4 [1, 64, 1, 1]
000000 00 00 00 00 00 00 00 00 00 00 00 00 00 00 00 00
       0.0 0.0 0.0 0.0
000010 00 00 00 00 00 00 00 00 00 00 00 00 00 00 00 00
       0.0 0.0 0.0 0.0
000020 00 00 00 00 00 00 00 00 00 00 00 00 00 00 00 00
       0.0 0.0 0.0 0.0
000030 00 00 00 00 00 00 00 00 00 00 00 00 00 00 00 00
       0.0 0.0 0.0 0.0
000040 00 00 00 00 00 00 00 00 00 00 00 00 00 00 00 00
       0.0 0.0 0.0 0.0
000050 00 00 00 00 00 00 00 00 00 00 00 00 00 00 00 00
       0.0 0.0 0.0 0.0
000060 00 00 00 00 00 00 00 00 00 00 00 00 00 00 00 00
       0.0 0.0 0.0 0.0
000070 00 00 00 00 00 00 00 00 00 00 00 00 00 00 00 00
       0.0 0.0 0.0 0.0
000080 00 00 00 00 00 00 00 00 00 00 00 00 00 00 00 00
       0.0 0.0 0.0 0.0
000090 00 00 00 00 00 00 00 00 00 00 00 00 00 00 00 00
       0.0 0.0 0.0 0.0
0000a0 00 00 00 00 00 00 00 00 00 00 00 00 00 00 00 00
       0.0 0.0 0.0 0.0
0000b0 00 00 00 00 00 00 00 00 00 00 00 00 00 00 00 00
       0.0 0.0 0.0 0.0
0000c0 00 00 00 00 00 00 00 00 00 00 00 00 00 00 00 00
       0.0 0.0 0.0 0.0
0000d0 00 00 00 00 00 00 00 00 00 00 00 00 00 00 00 00
       0.0 0.0 0.0 0.0
0000e0 00 00 00 00 00 00 00 00 00 00 00 00 00 00 00 00
       0.0 0.0 0.0 0.0
0000f0 00 00 00 00 00 00 00 00 00 00 00 00 00 00 00 00
       0.0 0.0 0.0 0.0

blocks.0.conv1.weight f4 [64, 64, 1, 1]
000000 e2 5f 15 bd 37 00 bb bd ef cf c7 3d b3 db 4c 3d
       -0.036468394 -0.091309 0.09756457 0.05001421
000010 ac a0 52 be ce b7 06 3d fb 4e 5a bd 0d a4 45 3d
       -0.20569104 0.032890134 -0.053297978 0.048252154
000020 ae c3 92 bd 08 e3 9b bd c6 e6 55 3c d3 69 b8 bc
       -0.07166229 -0.07611662 0.013055509 -0.022511398
000030 73 b1 8d bd 60 d4 2e bd 5f a3 92 3e 30 cf 1a 3e
       -0.069186114 -0.042683005 0.28640267 0.15118098
000040 08 59 91 bd ab e5 bf bd 8c 6f 78 3d c6 0f 91 bd
       -0.070970595 -0.093699776 0.060653254 -0.07083087
000050 4b b7 0a 3d 06 de f0 bd 93 38 c1 bd e8 fc 92 bd
       0.033866208 -0.117610976 -0.09434619 -0.07177144
000060 be 0e 91 3d 30 8e 87 bd 45 1b d8 3d 25 48 c0 3c
       0.0708289 -0.06618917 0.10552076 0.023471901
000070 ae a2 31 3d d8 45 07 bd e7 ee 49 bd 30 4c c1 3d
       0.043368034 -0.033025593 -0.0493001 0.0943836
000080 15 a1 06 3d 2d 43 2f 3e 80 17 a5 3d b7 44 ba bc
       0.032868464 0.1711547 0.08061123 -0.022737844
000090 2e 9e 5f bd ca 75 84 3d 1b 35 3a 3d 7a 32 e7 bd
       -0.05459421 0.06467779 0.0454608 -0.112889245
0000a0 ec 45 5b 3d fc 28 2f 3d 56 25 42 3e 89 82 c9 3c
       0.05353348 0.042763695 0.18959555 0.024598377
0000b0 eb e7 41 bd ee 30 b1 3d bc d4 a4 bd a4 eb c1 bd
       -0.047340315 0.08651911 -0.08048388 -0.09468773
0000c0 bc 97 bf 3d cb 1c 23 be 7b a0 88 bd b9 5e 58 3d
       0.09355113 -0.15928952 -0.06671234 0.05282471
0000d0 25 c0 48 bd 70 85 ab 3d 2c 4d ad 3d 4a 24 fa 3d
       -0.04901137 0.083750606 0.08461985 0.12213953
0000e0 b4 44 0d be 2f 71 23 be 1d 26 93 bd fe 6d 27 3c
       -0.1379574 -0.15961145 -0.07185004 0.010219095
0000f0 a6 01 bc 3d bc 92 f1 bd 04 63 07 3d e6 ff ae 3b
       0.09180002 -0.117955655 0.033053413 0.005340564
000100 36 3c d7 3b fa 97 5d 3d d9 0d 1b 3d a3 a4 c5 bd
       0.006568457 0.054100014 0.037855003 -0.096505426
000110 53 2e 0a bd 2f bb e1 3d 82 ae e6 bd 2c ba b6 3d
       -0.033735584 0.110220306 -0.112637535 0.08922228
000120 49 7d 84 3d 37 b6 70 bd b7 ea 1e 3d 25 9a 4c 3d
       0.06469209 -0.058767524 0.03879806 0.04995169
000130 e1 b3 de bc a8 25 a2 bd 09 f3 2d 3b d0 63 6b 3d
       -0.027185382 -0.079173386 0.0026542565 0.057468235
000140 e6 44 dc 3c 85 d4 ab 3c 20 53 d0 bd 9a 93 73 bd
       0.026888322 0.02097536 -0.10172105 -0.059466936
000150 a7 1e 1e be ef ec 06 3e c5 2e ed bd df cd cf 3d
       -0.1544138 0.1317632 -0.11581186 0.10146689
000160 9f a7 24 bd 40 71 0e 3e 9a 93 8e bd 31 86 fb bd
       -0.04019892 0.13910389 -0.069617465 -0.12281454
000170 26 82 ef bd 83 2e 84 3d c5 2b c0 b9 77 50 37 be
       -0.11694746 0.06454184 -0.00036653705 -0.17901789
000180 2b aa 2e 3d 95 b3 e4 3c a7 07 3d 3d 08 7e e4 bd
       0.042642754 0.027917663 0.046149876 -0.11156851
000190 50 81 b4 bc e7 bf 2a 3d 20 37 5b bd f1 29 e3 bd
       -0.022034317 0.04168692 -0.05351937 -0.11091984
0001a0 65 56 c5 bc da a9 f9 3d 82 50 89 3a 9f a0 35 b9
       -0.024089048 0.121906 0.0010476264 -0.00017321341
0001b0 70 41 c2 3d 47 96 0e be e6 6c 35 3e eb 6a fb bd
       0.094851375 -0.13924514 0.17717323 -0.12276252
0001c0 53 5c bd 3c 4d 2c e0 3d f5 de 52 3d 76 5b 48 3d
       0.023115313 0.1094595 0.05148216 0.04891535
0001d0 35 d5 46 be 0d 01 8b bd 37 8e 4f bd a6 95 ea 3d
       -0.1941727 -0.0678731 -0.050672736 0.114543244
0001e0 34 55 c3 3d 18 fe ec 3c e1 4d 19 bd 6a a6 e7 3b
       0.095377356 0.028929755 -0.037427787 0.0070693986
0001f0 3d 5e 7f 3d 51 45 38 3e c4 a6 83 3d 5a fd 1c 3d
       0.062345732 0.17995192 0.064282924 0.038327552
000200 31 59 55 bc 85 28 e0 bd 1e a1 c0 3e 32 81 81 bd
       -0.013021753 -0.109452285 0.37622923 -0.0632347
000210 2d f0 a7 bc b5 79 06 3e 1c 17 f3 3d fe a7 46 3e
       -0.020500267 0.13132365 0.11869642 0.19400021
000220 b3 cf 87 3c a6 6b 5e 3d 5f 91 5f bc 37 67 86 3d
       0.01657853 0.05430188 -0.013645499 0.065626554
000230 56 b2 63 3c 77 96 d3 3d 64 44 97 3d 82 d5 e8 3d
       0.013897499 0.10331433 0.07386091 0.113688484
000240 77 df 78 3c 87 bd 1f bd f0 3c c7 bd 5f b3 5b 3c
       0.015189997 -0.038999107 -0.0972842 0.013409465
000250 cd 03 e0 bd 0a 25 4a bd 4f f8 4a bb 90 14 81 3d
       -0.10938225 -0.04935173 -0.0030970757 0.0630275
000260 b3 78 1f bc 0f f4 65 bd 4e 49 e7 bc 9a 48 15 3e
       -0.009733367 -0.056140956 -0.028233197 0.14578477
000270 14 a7 b1 bb 0f 15 2b be ec 1b a5 bd 64 9e ad 3d
       -0.0054215286 -0.16707252 -0.08061966 0.08477476
000280 50 1d ef 3d 5c ef dd 3c 7c b0 02 be 58 15 1f bd
       0.11675513 0.027091675 -0.12762636 -0.038838714
000290 11 a6 d7 bd ab a7 0d 3e e0 e4 87 bd fb 0b 4a 3d
       -0.105297215 0.13833492 -0.06635451 0.04932783
0002a0 27 69 23 bc 2a d7 eb 3c 91 d6 44 3c d5 b1 87 3c
       -0.009973801 0.028789122 0.012014047 0.01656429
0002b0 b1 c5 d7 bd cd 28 c7 bc b2 03 2c bb 67 71 e4 3d
       -0.105357535 -0.024311448 -0.002624732 0.11154442
0002c0 19 15 1e bd ab 03 0c be dc 86 e4 3c dc 19 4f bd
       -0.03859434 -0.13673274 0.027896337 -0.05056177
0002d0 26 fa 6c bd f0 d6 b0 3d 9c 2c d1 3d 3a aa 48 bd
       -0.057855748 0.08634746 0.10213587 -0.048990466
0002e0 dc e2 04 3e 6c 7e 3a be 38 5b 1d be 0d 76 07 bd
       0.12977165 -0.18212289 -0.15366828 -0.033071566
0002f0 a8 10 ac bc e5 c7 1a be b1 ec d1 bd 66 93 dd bb
       -0.021004036 -0.15115316 -0.102502234 -0.006761956
000300 1a 73 87 bd 1e 37 20 bd 61 d6 30 3e 52 33 36 3c
       -0.06613751 -0.039115064 0.17269279 0.011120634
000310 e6 7d 48 3d 7e e2 33 3d e4 73 4a 3c 81 ea 46 3d
       0.04894819 0.04391717 0.012356732 0.048563484
000320 e6 b7 8d bd 35 ad e1 3d 4c 03 48 3d 6c a3 42 3a
       -0.069198415 0.11019365 0.04883127 0.00074248645
000330 d8 aa 49 bd 96 31 1d 3e 9e a8 12 3e bb 14 90 3c
       -0.049235195 0.15350947 0.14322135 0.01758801
000340 4f 6d 6b 3d 6e ef d0 3c 7e d2 3e bd 6b 6b 2a be
       0.05747729 0.025504794 -0.04658746 -0.16642539
000350 6a 46 10 be c0 69 95 3d f3 5c ba 3d 43 be b8 bd
       -0.14089361 0.07295561 0.0909976 -0.090206645
000360 34 95 38 bd d8 ae 9b bc ee 83 04 be 5c 5c 33 be
       -0.045064166 -0.01900427 -0.12940952 -0.17515701
000370 0d d2 3e 3e 12 63 98 bd 80 c6 27 3e 6f a9 85 bc
       0.18634816 -0.07440771 0.16384315 -0.016316144
000380 3b a4 52 3e 7c 12 1b 3d e6 3e c7 3d 91 36 b8 bd
       0.20570461 0.037859425 0.09728794 -0.08994783
000390 06 0b 76 ba c4 6c 7f bc 78 f2 f7 3c e8 07 02 3e
       -0.0009385798 -0.015589897 0.030266985 0.12698328
0003a0 4e a1 f7 3c 5e 23 bc bc 47 5c 11 3d d5 36 35 be
       0.030228283 -0.022966083 0.035488393 -0.17696698
0003b0 f8 de b6 3d 3f d3 51 3c 04 0a e3 bc 32 cd 17 be
       0.08929247 0.012806713 -0.027714737 -0.1482437
0003c0 0c 58 51 3e d6 5e 2d 3e 21 94 be 3d 21 c0 25 be
       0.20443743 0.16930708 0.09305597 -0.16186573
0003d0 48 a6 d0 bc 68 61 50 3d e2 94 e9 bd 41 d0 51 bd
       -0.025469914 0.050874144 -0.1140535 -0.051223997
0003e0 98 e9 51 3b 17 e7 35 bd 59 36 07 be 42 94 28 3e
       0.0032030102 -0.044409838 -0.13204326 0.16462806
0003f0 4d 40 6b 3d 4b d7 07 3d 03 52 82 bd ac c6 0c 3d
       0.05743437 0.033164304 -0.06363299 0.034369156

blocks.0.conv2.weight f4 [64, 1, 3, 3]
000000 d4 ab 9d bd 79 ab 92 3e f7 ee 53 be 57 a2 99 3e
       -0.07698789 0.28646448 -0.20696627 0.30006668
000010 3e 12 25 3e 19 db 43 3e 0b 9f 06 be 0c e8 14 3e
       0.1612024 0.19126548 -0.13146608 0.14541644
000020 d2 09 d1 3d b0 ff 62 be f3 ce 4c be 06 57 06 3e
       0.10206951 -0.2216785 -0.2000082 0.13119134
000030 52 b4 65 bc 3d d7 19 3e b0 82 7c 3e 40 c6 07 be
       -0.0140200425 0.15023513 0.24659228 -0.1325922
000040 aa 69 97 3d 71 22 8c be 19 4b 4a 3e 7e 52 d7 3d
       0.07393201 -0.27370027 0.1975521 0.10513781
000050 3a fb 3d be db f2 8c 3e dc c8 be bd 35 b2 0c 3e
       -0.18552867 0.27529034 -0.09315655 0.13739856
000060 4d fb 59 3e c2 c0 ac 3e 70 7e 5c bd c6 21 41 be
       0.2128727 0.33740813 -0.053831518 -0.1886054
000070 96 30 a9 be 8b d6 06 3e 78 bc c2 3d 10 cb a3 be
       -0.3304488 0.13167779 0.09508604 -0.31990862
000080 ef f7 92 be 73 d0 ef 3d 43 d9 61 be 28 35 52 be
       -0.28704783 0.117096804 -0.22055535 -0.2052809
000090 8d 50 27 be d3 c0 90 be 85 29 10 be 06 c3 25 3d
       -0.16339321 -0.28272113 -0.14078338 0.040469192
0000a0 31 f3 10 3d fe b5 e9 bd 87 d3 98 bd 8d fc 06 3e
       0.035388175 -0.114116654 -0.07462221 0.13182278
0000b0 08 e6 87 bd 52 cd 37 be e3 61 69 3e 17 61 3e 3e
       -0.06635672 -0.17949417 0.22791247 0.18591724
0000c0 da 03 30 bd 84 ce 82 be 4e ca 6d 3d e6 b3 11 be
       -0.042972423 -0.25548184 0.05805426 -0.14228782
0000d0 94 47 14 be 3c 5c 11 be a0 60 11 be 4b c8 d6 3d
       -0.1448043 -0.14195341 -0.14197016 0.104874216
0000e0 55 7a 66 3e e0 b0 85 be bc 2e 4f bd 0f 9b 95 3d
       0.22507603 -0.26111507 -0.05058168 0.07304966
0000f0 31 ef 4c 3e d1 b4 75 be 21 50 12 3e bc f1 10 3e
       0.2001312 -0.23994757 0.14288379 0.14154714
000100 e7 9f aa be 5d ac bc bd 14 6d e1 3d a6 d0 a4 3d
       -0.3332512 -0.09212563 0.11007133 0.08047609
000110 3a 22 80 bd e4 68 e6 bc f0 0e 00 be 92 5e 91 be
       -0.06256528 -0.028126188 -0.12505698 -0.28392464
000120 a8 3b ec bd d7 55 a5 be 39 8f 96 bd 3c 84 8d 3e
       -0.11534816 -0.32292053 -0.07351536 0.2763995
000130 d1 5f 02 3e 6f 4a ff 3d 0f 1e f5 3d e5 57 d0 bd
       0.12731864 0.12465369 0.11968624 -0.101730146
000140 46 2e 36 3e c1 90 24 be e5 1e ce bd b8 56 0e be
       0.1779109 -0.16070844 -0.100644864 -0.13900268
000150 bd 21 3d bb 12 11 5d 3e ec d3 bd 3e 9a 48 29 3e
       -0.002885922 0.21588543 0.37075746 0.16531602
000160 39 7a 14 3e 11 fb 0b 3e 79 f5 85 be c3 99 b1 be
       0.14499749 0.13669993 -0.26163843 -0.34687623
000170 1e 46 32 3e fb 29 11 be ad ce 50 3d 17 37 7e be
       0.1740956 -0.1417617 0.05097835 -0.24825703
000180 76 e7 c0 be 7d cd 54 be e5 b7 9b 3d 89 96 ac 3d
       -0.3767659 -0.20781513 0.076034345 0.0842715
000190 da 38 ad bd 46 f6 c9 bd d8 ed cb bd 52 84 ab be
       -0.08458109 -0.09861426 -0.099574745 -0.3349939
0001a0 91 d5 4e be 45 4c ed 3d 6b bb 4b be aa 97 b7 3d
       -0.20198657 0.11586813 -0.19895713 0.089644745
0001b0 bf 04 21 be 01 b5 45 3e 0d 7d 04 3e 89 0f b0 3e
       -0.15724467 0.19307329 0.12938328 0.34386852
0001c0 38 04 a4 3e 2c a7 65 3c 1e b3 c2 bd 04 0a e3 3d
       0.3203447 0.014016908 -0.0950682 0.11085895
0001d0 e0 07 84 bd 5b 29 d0 bd aa f3 91 3d e2 58 e4 3d
       -0.064468145 -0.10164138 0.07126553 0.111497656
0001e0 ea e3 4b bd 22 b8 8e 3e 0b c2 45 be 24 39 d8 3d
       -0.049777903 0.27874857 -0.19312303 0.10557774
0001f0 53 82 72 3e e1 fc 77 3e e8 85 bf bc 7c 86 d9 be
       0.23682527 0.2421756 -0.023379281 -0.42485416
000200 8d 75 ec bd 4a 41 30 be 13 f1 11 be 68 46 f9 be
       -0.115458585 -0.17212406 -0.14252119 -0.48686528
000210 2e a7 0b be d4 ca 41 be 55 7f 20 be c9 89 dd bd
       -0.13637993 -0.18925029 -0.15673573 -0.10817296
000220 84 a7 be bc 16 b9 86 3d a2 21 bf 3d 75 d2 94 bc
       -0.023273237 0.06578271 0.09332587 -0.01816676
000230 c9 87 f2 3c d8 32 b2 3d 2b 86 ac be 5f 17 16 be
       0.029605763 0.08701104 -0.33696112 -0.14657353
000240 e4 19 2c be 26 36 3c be 12 ce 91 be 02 b7 2e be
       -0.16806751 -0.18380031 -0.28477532 -0.17062
000250 b2 0b 04 3e e0 58 83 be 59 d8 63 be 20 49 69 3e
       0.12895086 -0.25653744 -0.22250499 0.22781801
000260 79 07 43 3e 29 d7 5f bd 43 28 09 3e 72 c1 ec bd
       0.1904582 -0.054648552 0.13394265 -0.11560334
000270 fe 15 21 bd 3c d1 8f be 09 47 00 3e d4 b1 43 3d
       -0.039327614 -0.2808932 0.12527098 0.047777012
000280 61 3b cb be 9a aa b5 be 43 17 1a 3e a1 9b c1 3e
       -0.3969374 -0.3548172 0.15047936 0.37814048
000290 ac 5d 02 3e 0f 44 1e 3e c5 ce 73 bd c2 76 18 be
       0.12731045 0.1545565 -0.059523363 -0.14889053
0002a0 51 1e c6 3d dc 8e 1f 3e 0f 5e 6d 3d c2 c7 e0 bc
       0.09673751 0.1558184 0.05795103 -0.027439002
0002b0 88 73 03 3d 0a a3 9f be 80 82 80 3e 1e 98 65 3d
       0.0320926 -0.31179076 0.25099564 0.056053273
0002c0 83 5b e8 3d 54 c6 83 3d 7f 7f 9a bd df 1c b3 be
       0.113455795 0.064343125 -0.07543849 -0.34982964
0002d0 a1 72 11 3d 31 7e da 3d 92 5e 8d 3c 07 6f 2d 3e
       0.03550971 0.106686 0.017257009 0.16936885
0002e0 34 e9 b6 bd 17 bd 69 be 3f 2c 4c bc 27 5d b0 be
       -0.08931199 -0.22826038 -0.012461721 -0.3444607
0002f0 5d c6 72 be d0 c3 6e be 36 00 93 3e 7c 99 b3 3e
       -0.23708482 -0.23316884 0.28711098 0.35078037
000300 5d 4d 2a be 82 2c ff bd 33 1d ab 3e ef da a7 3c
       -0.16631074 -0.12459661 0.33420715 0.020490138
000310 6e f5 29 3e c5 af fe bd 72 e5 ba be e6 ce c0 be
       0.1659753 -0.12435869 -0.36503178 -0.3765785
000320 7d 58 24 be bc 3c 44 3e e4 6b 6d 3e 01 2f a9 3d
       -0.1604938 0.19163793 0.23185688 0.082609184
000330 bf ca 0a be 2d 07 a7 bd dd 04 a8 be 62 54 25 be
       -0.13553904 -0.081556655 -0.3281621 -0.1614547
000340 dd c5 97 be 10 d9 ca bd 73 53 22 3d 79 c9 f6 3c
       -0.29643145 -0.09904683 0.039630365 0.030125367
000350 4a f4 13 be 52 09 42 be db fd 81 3e 1a ba 15 3e
       -0.14448658 -0.18948868 0.2538899 0.14621773
000360 61 0e 07 be ad 64 cc be 09 db 0f 3e dc 3e 90 bd
       -0.13189079 -0.3992056 0.14048399 -0.070432395
000370 1d 96 c1 be 76 1c 9a be f2 f1 47 3e 55 45 42 3e
       -0.3780984 -0.3009984 0.19525889 0.1897176
000380 72 6f 81 be ec 27 37 be 68 00 48 be c1 25 b2 3d
       -0.2528034 -0.17886323 -0.19531405 0.08698607
000390 8e 0d 81 be 1e a2 35 be 07 fd c3 be 2e 8d c3 be
       -0.25205654 -0.17737624 -0.38278982 -0.3819365
0003a0 a2 7a d2 be 13 75 65 3e 9e 90 b8 bd 6b 37 8d 3e
       -0.41109186 0.22407942 -0.090119585 0.27581343
0003b0 ba ed 93 3e 6a b8 ff 3e 02 32 57 3e f5 75 07 3f
       0.28892308 0.49945384 0.2101517 0.52914363
0003c0 3b 7c 16 be 77 83 cc 3e 19 97 9c 3e fe c6 cb 3d
       -0.14695828 0.3994405 0.30584028 0.09950064
0003d0 9e b5 9b be ae 8e 1d bd ea 23 7b be e5 cd 55 3d
       -0.30412 -0.038466148 -0.24525419 0.05219831
0003e0 d7 cf ae 3c 4d 7c a2 be 5f c3 98 be af 44 b9 be
       0.02133934 -0.3173546 -0.29836556 -0.36185214
0003f0 dd cf 1e be 9a f2 84 3e f7 9d 02 be 3f 7a 1c 3e
       -0.15508981 0.2596634 -0.12755571 0.15281008

blocks.0.conv3.weight f4 [64, 64, 1, 1]
000000 33 e1 af 3d 58 9c 94 bb 9f 64 53 3c 4a 94 7c bd
       0.08587875 -0.004535239 0.012902408 -0.061664857
000010 45 3e 28 3c ec ae 84 3d ce 3e 2d 3e ad 30 98 3d
       0.010268752 0.06478676 0.1691849 0.07431159
000020 4d 37 71 3d 35 92 ea 3c 3a 18 0a 3d 14 cb dd 3d
       0.05889063 0.02863417 0.03371451 0.1082975
000030 b0 47 8e 3d 01 9d a3 3d 76 15 8a bd 35 af 56 3d
       0.06947267 0.079889305 -0.067423746 0.052413184
000040 32 9c 3e 3c 5c c2 75 3d c1 7a 7b 3c 88 e9 0b bc
       0.01163392 0.05999981 0.015349091 -0.008539565
000050 73 19 c3 3d d0 c6 58 3d 87 43 75 ba e1 fb ae bd
       0.095263384 0.052923977 -0.00093560707 -0.08544136
000060 c8 f1 af 3a 52 e8 53 3d 05 8f 48 3e b1 11 93 3d
       0.0013423497 0.05173523 0.19585808 0.07181109
000070 40 6d 4b 3d d3 33 52 3e 71 60 99 3c 20 19 5f bd
       0.049664736 0.20527582 0.018722745 -0.05446732
000080 eb 83 0d bb 2b ec 74 3d 15 f2 b2 bc 7a 74 5b 3d
       -0.0021593522 0.05979554 -0.02184395 0.053577878
000090 37 aa 19 3d da 20 6e 3d e6 d6 08 3e c6 86 56 bd
       0.037515845 0.0581368 0.13363227 -0.052374624
0000a0 cb c3 4b 3e 39 49 bc 3c b8 f6 62 3c a3 d4 9e bd
       0.19898908 0.022984134 0.013852768 -0.07755401
0000b0 61 84 bc 3c 77 00 9e bd 6d 58 86 3c af 94 8d 3c
       0.023012342 -0.077149324 0.016399587 0.017282812
0000c0 9d 1d 6b 3e 8d a5 c1 bd 0e 9b 91 3d 4c 4d da 3d
       0.22960515 -0.094554044 0.071096525 0.106592745
0000d0 91 a3 a8 3d 66 61 44 3d 26 14 cc 3d 63 31 e1 3c
       0.08234323 0.04794445 0.099647805 0.02748937
0000e0 2a 8f 13 be 24 c2 b7 bd 6b e2 fc 3d af 5f cc 3d
       -0.14410082 -0.08972576 0.12347873 0.09979188
0000f0 25 48 11 bc 95 d1 97 3c 79 c7 67 3d 71 44 04 3e
       -0.008867298 0.018532554 0.056586716 0.12916733
000100 2a c6 4a bd ad ad 00 bc f0 42 75 3d 31 97 d2 bd
       -0.04950539 -0.0078539075 0.05987829 -0.10282744
000110 77 63 0e be 4c 5a 83 3d 7d d4 55 3d 66 06 bd bd
       -0.1390513 0.06413707 0.052204598 -0.09229736
000120 21 39 f6 3d 11 d8 2a be 63 d3 69 3e a0 06 d1 3c
       0.12022615 -0.16683985 0.22834544 0.025515854
000130 42 f0 a2 bd f8 08 0f 3d ef 79 86 3d c6 c1 81 bd
       -0.07955982 0.034920663 0.06566226 -0.063357875
000140 48 69 a0 bd 92 38 32 be 89 c1 d3 bd 8a 63 67 bd
       -0.07832581 -0.17404392 -0.10339648 -0.056491412
000150 83 18 ee bd d7 2b 5c bb 5f 91 ae bd 3f 83 99 3d
       -0.11625769 -0.0033595467 -0.08523821 0.07495736
000160 9b dd dc 3d 8e ff 6e 3b 8a d6 b4 bd 24 cc 53 bc
       0.107844554 0.003646824 -0.088299826 -0.012927089
000170 74 83 3a be 7b 04 80 be f2 df bc 3d d4 a9 7b 3d
       -0.18214208 -0.25003418 0.09222402 0.061441258
000180 03 54 89 bc 63 f4 0a be 92 34 a5 3d fa 81 72 3d
       -0.016763693 -0.13569789 0.080666676 0.059205987
000190 e5 31 bf bd 89 dd 98 bc 0e a4 96 bd fa 1e 4b bd
       -0.093356885 -0.018660324 -0.0735551 -0.04959009
0001a0 0a de 9f be 21 2e 37 3c 5a 93 bd 3d 0e 52 55 3d
       -0.3122409 0.011180432 0.09256621 0.052080207
0001b0 57 94 74 bd 4d 2f 69 bd 1e 45 d9 bd 01 73 2d bd
       -0.05971178 -0.056929875 -0.10608886 -0.042346004
0001c0 70 06 94 bc 2b 7e 21 3d 3b e9 3d bd c6 32 d7 bd
       -0.018069476 0.039426964 -0.046365004 -0.10507731
0001d0 5e 52 bb 3d 0c 88 7f 3d 12 d2 cd 3d 31 ae 02 3e
       0.0914657 0.062385604 0.10049833 0.12761761
0001e0 cc be 76 3d f4 f5 f0 3d aa 3b 21 be 2b 07 5b bd
       0.06024055 0.11765662 -0.15745416 -0.053473633
0001f0 c9 35 88 bd ef 82 99 bc 82 ce 19 bd b9 31 e8 3c
       -0.06650884 -0.018739192 -0.037550457 0.028344022
000200 da 7b bd 3d 52 39 77 bc 61 7e b3 3d 33 1d f3 bd
       0.092521384 -0.01508935 0.08764339 -0.11870804
000210 12 16 86 3d 2e 26 19 3e fb 17 96 3e 3f d6 f8 3d
       0.06547178 0.1495597 0.2931517 0.12150239
000220 ed 9e 61 3d ca ff 20 be 86 c6 43 bd b4 3a 72 3d
       0.055083204 -0.15722576 -0.04779675 0.059138015
000230 51 f8 44 3d fa ff 5b 3d ae 17 a3 be ff a2 a6 bd
       0.048088375 0.053710915 -0.31854004 -0.08136558
000240 df b1 8d 3c 31 01 13 3e b7 ff 00 be ad cc 54 3e
       0.01729673 0.14355923 -0.12597547 0.20781203
000250 47 9d 8f 3d b8 98 26 3e 28 0e 36 3e 31 0a d7 bd
       0.0701242 0.16269195 0.17778838 -0.10499991
000260 81 69 0a be fc ab c8 bc 65 e2 f3 3d ec 3a 2a 3e
       -0.13516809 -0.024496071 0.11908416 0.1662404
000270 4a e5 01 3e e7 d2 cf 3d d2 76 c1 3b d2 78 85 3d
       0.12685123 0.10147648 0.005904057 0.06517185
000280 df 78 8d 3c b1 6e f9 3d 9b 2c 8b 3d 7f 41 e7 bc
       0.01726955 0.12179316 0.06795617 -0.028229473
000290 c8 ad d7 bd 87 04 f7 3d c8 ac 2c 3e 75 78 c9 3b
       -0.10531193 0.120614104 0.16862786 0.006148393
0002a0 38 a4 7f 3e 7b 7c 72 bd 25 2d bf bb 52 0f d7 3c
       0.24964988 -0.059200745 -0.005834239 0.026252422
0002b0 66 df 9a 3d 37 b7 87 bd 08 c9 d8 3d 3e bd 7e bd
       0.07562141 -0.06626742 0.10585219 -0.062192194
0002c0 4f 9d 05 3e 68 c5 01 be 18 13 8f 3d c5 ac aa bd
       0.1304829 -0.12672961 0.06986064 -0.083337344
0002d0 19 f6 1d 3e 22 5a 48 3e 94 55 1f 3d de 0a d1 bb
       0.1542591 0.19565633 0.038899973 -0.0063794693
0002e0 d2 2b 48 3b 03 a2 24 3d dc ac 9d 3c da 50 38 3e
       0.0030543697 0.04019357 0.019247465 0.17999592
0002f0 7d bf 2a 3e 77 36 ed 3d 7a f8 45 3e d7 67 a2 3e
       0.1667461 0.11582654 0.19333068 0.3171985
000300 05 fc cd bd 9f ca db bc 36 4b 29 3e 64 9a 4e 3d
       -0.100578345 -0.026830016 0.16532597 0.050440207
000310 c0 29 81 3d 16 9f 05 3e 04 58 e8 bd 49 9c 0b be
       0.06306791 0.13048968 -0.11344913 -0.13633837
000320 42 e6 17 bd 0b 59 f4 ba 3d 83 95 bd ef 98 03 3e
       -0.037084825 -0.001864226 -0.07300422 0.12851308
000330 9f 18 85 bd 2f 28 7d 3d 5a af f9 bd 6d 9f b0 bd
       -0.06498837 0.0618059 -0.12191649 -0.08624158
000340 09 80 e7 3c 5b f9 d8 3d 3e 74 23 be cc 60 95 3d
       0.028259294 0.10594436 -0.15962312 0.07293853
000350 ce 29 d4 3d ec d3 a8 3d 1e 48 60 be 72 40 10 3b
       0.10359536 0.08243546 -0.2190251 0.0022011069
000360 39 a8 44 bd e2 08 a1 3d 77 f7 5d bc 00 68 f5 bd
       -0.048011992 0.078630224 -0.01354777 -0.11982727
000370 cf eb b0 3d 21 71 f7 bd 76 3d b4 bd ca c8 6e bd
       0.08638727 -0.120821245 -0.08800785 -0.058296956
000380 5b f4 7c 3d 72 66 8d 3d eb 3f e4 bd 43 14 07 be
       0.061756473 0.069043055 -0.11145004 -0.13191323
000390 b1 3e 5c be 76 a1 40 bd 3b 4d f3 3d 0f 82 0b 3e
       -0.2150829 -0.04702898 0.11879965 0.13623832
0003a0 aa 4f 71 3b b2 45 67 3d cb 84 bd 3d 55 d3 9e bd
       0.0036821165 0.05646295 0.09253844 -0.07755152
0003b0 19 d0 2c bd 86 44 18 be df f8 a2 bd 93 fb cc bd
       -0.042190645 -0.1486989 -0.07957625 -0.100089215
0003c0 92 c6 06 bd c6 77 eb bd 1a 6c 08 3c a5 f7 9f bd
       -0.032904215 -0.11497454 0.008326555 -0.07810906
0003d0 ad 5b 8d 3c f9 58 bc bc 76 22 d2 bd be 3f e0 bd
       0.017255628 -0.022991644 -0.10260479 -0.10949658
0003e0 f8 7e ef bd 97 3c 90 3d 22 7b d4 3d 81 70 51 bd
       -0.11694139 0.070428066 0.10375048 -0.051132683
0003f0 f8 8d 7d 3c 43 5c 8e 3d cb 3a 79 3d 7e 78 ef 3d
       0.0154757425 0.06951191 0.060847085 0.11692904

blocks.1.beta f4 [1, 64, 1, 1]
000000 a4 c9 a8 bd 14 dd a1 bd e6 a3 eb 3d b6 a9 d2 3d
       -0.08241585 -0.079034954 0.115058705 0.10286276
000010 86 2e 9f 3d a4 c3 7e 3d fe aa 80 bd b2 c1 a9 3d
       0.077725455 0.062198296 -0.06282614 0.082888976
000020 2b 7b 2a bd 47 91 95 bd a4 82 f0 3b d3 c0 95 3d
       -0.04162137 -0.073031 0.0073397923 0.07312169
000030 e5 9a 03 3d e1 25 93 bd ce ee 9c 3d 46 c1 73 bd
       0.03213014 -0.07184959 0.07662736 -0.05951049
000040 04 88 9d 3d 2f bd 7e bd d3 88 af 3d 17 2e 33 bd
       0.076919585 -0.06219214 0.08571019 -0.043745127
000050 c9 d6 67 bd 02 32 8d bd 21 3e 9b 3d c9 53 22 3d
       -0.05660132 -0.06894304 0.075802095 0.039630685
000060 9f 3c 90 bd 7e 25 9a bd 69 77 b8 3c aa c0 15 3d
       -0.070428126 -0.07526682 0.022517877 0.036560692
000070 79 03 37 bd 08 7c 23 bd 5b 3a 98 3d 62 d6 ad bc
       -0.044681046 -0.039913207 0.074330054 -0.02122039
000080 e3 d8 d8 bd dd 3b 86 3d d4 59 4b bd 56 0f 02 3d
       -0.10588243 0.06554387 -0.049646214 0.031752907
000090 a6 29 0e 3e 2c 20 da 3d 56 78 0f 3d 8d e2 1c be
       0.13883075 0.106506675 0.03502687 -0.15320797
0000a0 a6 0b 62 bd 4a 78 c2 3d 13 11 e6 3c e4 fb 6d bd
       -0.05518689 0.094955996 0.028084313 -0.05810155
0000b0 a3 a0 d2 bd 66 51 4a 3d 80 ec 27 bd 6b 96 25 bd
       -0.10284545 0.049394034 -0.04099703 -0.040426653
0000c0 1e 9b 9e 3d 10 48 c5 bd 96 25 82 3d 9f de a5 bd
       0.0774443 -0.096328855 0.06354825 -0.08099102
0000d0 1e b6 63 bd e6 b1 52 bd c7 e7 7a bd 38 1a 9f bd
       -0.055593602 -0.05143919 -0.061256196 -0.07768673
0000e0 e0 0d 75 bd 5b ff 08 be c1 4b 88 bd 3d e9 77 bd
       -0.059827685 -0.1337866 -0.06655074 -0.060525168
0000f0 26 88 b0 bd 6d 18 b3 bd ba 18 15 bd d1 01 86 bd
       -0.08619718 -0.08744893 -0.036400534 -0.06543315

blocks.1.gamma f4 [1, 64, 1, 1]
000000 00 00 00 00 00 00 00 00 00 00 00 00 00 00 00 00
       0.0 0.0 0.0 0.0
000010 00 00 00 00 00 00 00 00 00 00 00 00 00 00 00 00
       0.0 0.0 0.0 0.0
000020 00 00 00 00 00 00 00 00 00 00 00 00 00 00 00 00
       0.0 0.0 0.0 0.0
000030 00 00 00 00 00 00 00 00 00 00 00 00 00 00 00 00
       0.0 0.0 0.0 0.0
000040 00 00 00 00 00 00 00 00 00 00 00 00 00 00 00 00
       0.0 0.0 0.0 0.0
000050 00 00 00 00 00 00 00 00 00 00 00 00 00 00 00 00
       0.0 0.0 0.0 0.0
000060 00 00 00 00 00 00 00 00 00 00 00 00 00 00 00 00
       0.0 0.0 0.0 0.0
000070 00 00 00 00 00 00 00 00 00 00 00 00 00 00 00 00
       0.0 0.0 0.0 0.0
000080 00 00 00 00 00 00 00 00 00 00 00 00 00 00 00 00
       0.0 0.0 0.0 0.0
000090 00 00 00 00 00 00 00 00 00 00 00 00 00 00 00 00
       0.0 0.0 0.0 0.0
0000a0 00 00 00 00 00 00 00 00 00 00 00 00 00 00 00 00
       0.0 0.0 0.0 0.0
0000b0 00 00 00 00 00 00 00 00 00 00 00 00 00 00 00 00
       0.0 0.0 0.0 0.0
0000c0 00 00 00 00 00 00 00 00 00 00 00 00 00 00 00 00
       0.0 0.0 0.0 0.0
0000d0 00 00 00 00 00 00 00 00 00 00 00 00 00 00 00 00
       0.0 0.0 0.0 0.0
0000e0 00 00 00 00 00 00 00 00 00 00 00 00 00 00 00 00
       0.0 0.0 0.0 0.0
0000f0 00 00 00 00 00 00 00 00 00 00 00 00 00 00 00 00
       0.0 0.0 0.0 0.0

blocks.1.conv1.weight f4 [64, 64, 1, 1]
000000 e9 c1 4c bd e2 61 d0 3d 37 bc 93 bd 28 24 34 3d
       -0.049989615 0.1017492 -0.072136335 0.043979794
000010 51 73 96 3d ce 54 33 bd 3a 55 25 3e 02 b1 44 39
       0.073462136 -0.043782048 0.16145793 0.00018757957
000020 d9 f8 0b bd a4 92 f7 3d a3 4e 9d 3c da bb bd 3c
       -0.034172866 0.12088516 0.019202536 0.023160864
000030 ee 83 10 bd 77 f6 1e be a9 c1 66 bd bf cb b5 3d
       -0.035282068 -0.15523706 -0.056337032 0.08876752
000040 d6 64 e2 3d b0 88 e5 3d 7b eb a5 3d f8 2a 6d bd
       0.11054389 0.11207712 0.08101555 -0.057902306
000050 80 80 75 bd bc da 16 3d 2f fd 8e 3c e5 1c 31 bc
       -0.059937 0.036829695 0.017454712 -0.010810112
000060 52 3a d2 3d b7 1b 88 3d 42 1d 0a be 52 61 99 3d
       0.1026503 0.06645911 -0.13487723 0.074892655
000070 2f 3c a8 3d da c7 97 3d f8 8b 57 bc ea d6 55 bd
       0.08214604 0.074111655 -0.01315593 -0.05220691
000080 e5 22 69 bd 64 51 06 3e b7 6d a4 3d 00 2d 79 3b
       -0.056918044 0.13116986 0.08028739 0.0038021207
000090 05 f6 87 3d 15 4c 4b bb bb c0 f8 3d 9e 4b 86 bc
       0.066387214 -0.003102069 0.121461354 -0.016393479
0000a0 11 0a a5 bd 99 38 96 3d de 8e e2 3d d4 52 82 3d
       -0.08058561 0.07335014 0.11062406 0.063634545
0000b0 63 5b bf bd c4 6b c2 bd f8 60 0d be 55 58 ad 3c
       -0.093436025 -0.09493211 -0.13806522 0.021160284
0000c0 62 bb 3f 3e 13 68 be 3d d2 3b 83 3d c3 61 6c 3d
       0.18723825 0.09297194 0.06407894 0.05771042
0000d0 4a de 20 3d 3a 0b 00 be 21 02 80 3d 19 82 cb bd
       0.03927449 -0.12504283 0.06250406 -0.099369235
0000e0 62 78 c5 3d 7c 9d 96 bd c3 34 90 bd ef be 36 3d
       0.09642102 -0.073542565 -0.070413135 0.044615682
0000f0 c4 5f f1 bc 34 30 2a 3e a8 79 88 bd 62 6f c0 ba
       -0.02946461 0.1661995 -0.06663829 -0.0014681632
000100 5b 15 61 3a a3 17 8f 3d a3 55 9d bd 0d 8a d1 bc
       0.0008586251 0.0698693 -0.076823495 -0.025578523
000110 b8 39 bd 3d 38 79 b6 3d 1c 85 c2 bd 2e 0f 40 3d
       0.092395246 0.089098394 -0.09498045 0.046889476
000120 e8 62 0d 3e 67 ec 94 bd 32 d3 c6 3c 9d 21 86 39
       0.13807261 -0.07271653 0.024270628 0.00025583516
000130 47 84 5d bd 10 ee 2c 3e 3e fc ef bd 0e 6f 1f 3d
       -0.054081228 0.16887689 -0.11718033 0.03892427
000140 b2 85 0b bd 38 52 a9 bd 2a 57 13 3e e1 49 ae bd
       -0.03406305 -0.08267635 0.14388719 -0.08510185
000150 bf 84 8d bc fd 8a 08 be 8f a9 b7 3d 22 c9 a0 3b
       -0.017275212 -0.1333427 0.089678876 0.0049067894
000160 40 d1 85 bc 66 e7 1b 3e 7e f2 fc 3b 8e 05 ee 3c
       -0.01633513 0.1522499 0.007719337 0.029055383
000170 c4 7a 2a 3d 63 5a 77 3d 5c fb 0e 3d 5f 50 ca bd
       0.041620985 0.060388934 0.034907684 -0.09878611
000180 8d 8f 97 3d d9 06 8c bd c0 2d bd 3d de 54 a7 3d
       0.07400427 -0.068372436 0.09237242 0.08170484
000190 43 d3 c5 3d 27 7f 75 3d fd dc f0 bd 32 29 c5 3c
       0.096594356 0.059935715 -0.117609 0.024067495
0001a0 57 c7 a9 ba dc 40 e9 bd bc bf 98 bd d8 ca 26 3e
       -0.0012953085 -0.11389324 -0.074584454 0.16288316
0001b0 be 21 b5 3d 05 18 46 bb a7 1b 85 3d d5 42 7d 3d
       0.088443264 -0.003022672 0.06499415 0.061831314
0001c0 ec e0 16 3d ab 8e 6c bd 22 8d 92 3c f4 d1 19 bc
       0.036835596 -0.057753246 0.017889563 -0.009388436
0001d0 f4 60 76 bd 0f 60 81 3d 35 a2 90 bd b9 c1 ae 3d
       -0.060151055 0.0631715 -0.070621885 0.085330434
0001e0 e5 7c 96 3b db ce e6 3d 63 f4 e3 3d 2c a9 1b be
       0.0045925253 0.11269923 0.111305974 -0.15201253
0001f0 39 72 cd 3d b8 0f 19 bd 2e e8 e3 3d 3b 89 d4 bd
       0.10031552 -0.037368506 0.11128269 -0.10377737
000200 5d a4 87 3d b7 c3 ac 3d 9a 86 44 3d 26 d3 b2 3d
       0.06623147 0.08435767 0.04797993 0.087316796
000210 07 2d 1f bb 36 33 cf bd d5 9e 0f be c6 33 8d 3d
       -0.0024288313 -0.101171896 -0.14025433 0.068946406
000220 04 56 60 3a a4 e3 02 be 4f db c2 bd 1a 08 c5 bd
       0.0008557739 -0.1278215 -0.09514486 -0.09620686
000230 35 af 00 3e f3 46 83 bd fa fd 49 3d 70 60 df bd
       0.12566836 -0.06410017 0.049314477 -0.10907066
000240 c3 26 de 3d 60 14 98 bb 00 9d 3b 3c c8 6e 88 bd
       0.10847237 -0.0046411008 0.011451006 -0.06661755
000250 66 3f 24 3b ed 05 ae 3c 67 2b 88 3d 42 ff c2 bc
       0.0025062202 0.02124306 0.06648903 -0.023803357
000260 4e b5 1b be 31 32 f5 3d dc 3b ad bc 00 e6 82 bc
       -0.15205881 0.11972464 -0.021146707 -0.015978813
000270 82 a1 b8 bd 8b 4b 83 3c e4 48 3c bc 39 6f 9b 3d
       -0.0901518 0.016027233 -0.011491988 0.075895734
000280 2b 07 24 bd f9 18 30 bd 1b 40 f5 3a c4 3e 93 bc
       -0.0400459 -0.042992566 0.0018711122 -0.017974265
000290 5b 43 f0 3d 4f dc 95 3d 70 29 3f 3d f2 08 06 bc
       0.11731597 0.07317411 0.046670377 -0.008180844
0002a0 7d da d1 3d b9 b9 eb bd b4 79 55 3d ad 61 5d 3c
       0.102467515 -0.11510033 0.05211802 0.013512057
0002b0 7c b9 0f 3e a4 1a 67 3c 9d ff 2e 3e 60 e7 0a 3e
       0.140356 0.014105473 0.17089696 0.13564825
0002c0 4c fe c4 bd 25 78 c8 bd 66 e6 40 3c 71 ea f7 bd
       -0.09618816 -0.09788541 0.011773681 -0.12105263
0002d0 98 1e 85 3d 83 92 9d 3c 7b 00 b7 3d 7e af c8 3d
       0.06499976 0.019234901 0.089356385 0.097990975
0002e0 f2 f0 32 3d dc 4e 82 bd 56 6c 18 3e 72 ad 9b bd
       0.043686815 -0.063626975 0.14885077 -0.076014414
0002f0 c0 97 fa bc f6 c0 a9 3b 91 8c 12 3d 8e a7 86 bc
       -0.030589938 0.0051804734 0.035778586 -0.016437318
000300 51 25 89 bd b7 66 81 bd 95 14 f4 bd cc a2 fa bd
       -0.06696571 -0.063184194 -0.11917988 -0.12238082
000310 88 84 c6 3d 77 ec bf bc 72 7a 6d 3c 56 72 c9 bd
       0.09693247 -0.023428185 0.014494525 -0.09836261
000320 1c 68 17 3e 49 97 fa bd b1 fc c5 bd 1a d0 8e bd
       0.14785808 -0.122358866 -0.09667338 -0.06973286
000330 7d a9 33 3e 59 8f bd 3d e9 5b 20 be 66 4d b6 bc
       0.17545123 0.09255857 -0.15660061 -0.022253703
000340 e4 74 a1 3d 3c 7e 1d be 36 3b 6d 3c c5 e5 0f 3d
       0.07883623 -0.15380186 0.014479449 0.035131235
000350 42 d7 d2 bd f3 2c d4 bc f1 86 00 3d c4 2f 1d bd
       -0.102949634 -0.02590034 0.03137869 -0.03837563
000360 1a e7 41 be 58 a5 db bd 6e 7d f8 bd b3 89 b9 bc
       -0.18935814 -0.10724896 -0.12133299 -0.022648668
000370 26 de 96 3d 19 33 9b bd 9c e0 02 bd a3 f3 9f 3d
       0.0736659 -0.075781055 -0.031952485 0.07810142
000380 a1 69 38 3d c6 9c 28 be 92 e0 0b 3d 44 0d 31 bd
       0.04502261 -0.16466054 0.034149714 -0.04322554
000390 25 45 27 bd ff 54 d5 bd 64 d7 9d 3d 3f 9e 58 bd
       -0.040837426 -0.10416602 0.07707098 -0.05288529
0003a0 f2 c9 17 3e 07 96 04 bd 05 b4 19 be e0 77 28 3e
       0.1482313 -0.03236964 -0.15010078 0.16451979
0003b0 c8 2f cc 3d 72 9a 07 3d 98 38 09 3c 6d 97 d8 3c
       0.09970051 0.033106275 0.008375309 0.026439393
0003c0 14 f3 7c bd 16 ff 03 be ad d7 f1 3d 87 ad 66 bd
       -0.061755255 -0.12890276 0.11808715 -0.056317832
0003d0 0a da c1 bc 57 5e 45 bd 3d d9 0a 3e dc 9c fb bd
       -0.02366354 -0.048185673 0.13559432 -0.12285778
0003e0 9d a6 08 3e 1a f3 a8 3d 43 ed 9a 3d 65 31 0a be
       0.13344808 0.08249493 0.07564785 -0.13495405
0003f0 16 ce 09 3d 7f 32 28 bd d6 c8 eb 3d 72 c3 e7 3c
       0.033643804 -0.04106378 0.11512916 0.028291438

blocks.1.conv2.weight f4 [64, 1, 3, 3]
000000 02 b6 66 be c7 d9 00 be 0a 1e ad bd f8 b6 1a 3e
       -0.22530368 -0.12583075 -0.08452995 0.1510886
000010 ee 3d 7f be 3a 15 b1 bd cc f1 4b 3d 14 c4 ed 3d
       -0.24925968 -0.08646627 0.049791142 0.116096646
000020 2a a4 14 3d 38 c0 98 3e 88 4e 9f 3e 2c cb f0 3d
       0.03628937 0.2983415 0.31114602 0.11757502
000030 88 20 a5 3e 8e 15 0d 3e 23 d9 87 bd e9 18 00 be
       0.32251382 0.13777754 -0.066332124 -0.12509502
000040 7d 08 b4 3e be 01 43 be 12 55 2e 3d bf 41 22 3e
       0.35162726 -0.19043633 0.042561598 0.15845393
000050 f1 38 73 bd ce b0 b3 3e 57 c4 88 3d ad 5a 14 3e
       -0.059380475 0.3509583 0.06678074 0.14487715
000060 66 f7 48 3c c4 a8 f3 3d 2a d8 3c 3e 7d 17 9e bd
       0.012266016 0.11897424 0.18441835 -0.07719324
000070 48 7e b2 3e 69 cf 4a be 73 b5 c4 3d 95 a0 06 3d
       0.3486197 -0.19805683 0.09604921 0.032867987
000080 90 96 18 be 38 cd ba 3e a2 94 6b be 17 aa 53 3e
       -0.14901185 0.36484694 -0.23005918 0.20670353
000090 c4 c5 37 3e b3 c9 03 3d 2e 2f 75 be 97 d0 10 bd
       0.17946535 0.032174777 -0.23943779 -0.035355177
0000a0 e0 9a 9e 3e 09 ac 93 3e a4 4e 0b be 3e 2f a2 3d
       0.30977535 0.2884219 -0.13604218 0.07919167
0000b0 4f 57 72 3e 69 69 a3 be 22 de 98 be a6 e5 08 3e
       0.23666118 -0.3191636 -0.29856974 0.13368854
0000c0 93 8d f0 3d e7 4b fd bd 8b b5 03 be 41 6b 5b be
       0.11745753 -0.12367993 -0.12862222 -0.21427633
0000d0 1e e8 84 3e 36 31 85 3e f7 ca a5 3d 5c 0a 0c bd
       0.2595834 0.26014107 0.08095353 -0.034189567
0000e0 11 5a 05 be 9e 4e 7e bd 54 a7 0a 3e 1d 03 6e be
       -0.13022639 -0.062086694 0.13540393 -0.23243375
0000f0 ec 95 04 3d b7 e5 b5 be da b1 62 be 9f 04 de bd
       0.03236954 -0.3552682 -0.22138157 -0.10840725
000100 37 98 ed bd 35 b6 2e be 66 4e f9 3c af 68 62 3e
       -0.11601298 -0.17061694 0.030432891 0.22110246
000110 cb d7 5f be d2 59 e6 bd dd 84 4f 3e c8 70 96 3e
       -0.21859662 -0.112476006 0.20265527 0.2938292
000120 00 2a 49 3c 8a 74 cb bd b2 60 53 bc 46 bc 92 be
       0.01227808 -0.099343374 -0.012901472 -0.28659266
000130 8c 84 67 3d 9c be 7f 3e 0a fe 9d be ef 1e 93 be
       0.05652289 0.24975055 -0.3085788 -0.28734538
000140 2f 4a 95 3e 3a 43 b3 3e 06 50 c4 3e 55 e0 54 3d
       0.2915816 0.35012227 0.38342303 0.051971752
000150 7b e8 65 be e2 38 2a 3e ee 29 b7 3e f8 4d 66 be
       -0.22451966 0.16623262 0.35774177 -0.2249068
000160 ab fd 5e be f2 71 11 be b9 16 0e 3e 18 96 82 3e
       -0.21776454 -0.14203623 0.13875856 0.25505137
000170 1f 58 85 be 07 d8 ea 3c 95 7f ae 3e b7 a5 2b 3e
       -0.26043794 0.028667463 0.34081712 0.16762434
000180 71 cd b7 bd ad 2c 40 be 47 06 09 3e 20 e0 99 be
       -0.08974732 -0.18767042 0.13381301 -0.30053806
000190 e7 0c 23 3c 78 58 12 bd 57 d7 28 bd 16 4b 8c 3e
       0.009951807 -0.0357289 -0.04122099 0.27401036
0001a0 98 e9 af be 99 7d 8f be 08 03 9a be d4 50 bb 3d
       -0.34357905 -0.2802551 -0.30080438 0.09146276
0001b0 c0 6b 9d be 66 62 a6 bd 1b 01 b4 bd 2f ce 31 be
       -0.3074627 -0.08124237 -0.08789273 -0.17363809
0001c0 08 8e 43 3e c7 8a 2d be e3 62 9d be cd 51 bd be
       0.1909715 -0.1694747 -0.30739507 -0.36976472
0001d0 85 86 a1 be 98 a4 b1 3e 58 81 d2 3c 78 f3 13 3d
       -0.31547943 0.34695888 0.025696442 0.03612086
0001e0 fd 80 ae 3e c4 e9 b9 3e a1 b7 b8 3d 9c 4b f2 bd
       0.34082785 0.36311162 0.090193994 -0.118308276
0001f0 70 e3 af bd d8 d6 c2 3d 41 2e 21 3e fa 37 50 3e
       -0.08588302 0.095136344 0.157403 0.20333853
000200 14 e2 56 3d f4 5b 17 be 42 5a 57 be c5 9a 93 be
       0.0524617 -0.14781171 -0.21030524 -0.28829017
000210 75 7e b8 be ad 8b 2d be d6 f4 ad be ba ea 6a be
       -0.3603398 -0.16947813 -0.33975857 -0.22941104
000220 8a 02 a6 be 3a f6 d2 bd a8 ee 2f 3e 27 2b 8f 3e
       -0.32423812 -0.1030087 0.17180884 0.2796261
000230 27 17 58 3e 3d fa 71 bd 12 f9 a8 be 8f ea cb bd
       0.21102582 -0.059076536 -0.33002526 -0.09956848
000240 f3 b0 c4 bd fd 14 9c be 6f cf a5 be 4c 2d a5 be
       -0.09604063 -0.30484763 -0.32384822 -0.3226112
000250 d3 5d 9b be a0 1e e9 3d 2f 53 92 be 17 b6 4f 3d
       -0.3034502 0.113827944 -0.2857909 0.050710764
000260 85 a5 86 be 8c eb b4 be 1f b2 7a be ca b6 7a 3e
       -0.26298156 -0.35335958 -0.2448201 0.24483791
000270 35 db af be 17 ec 71 be 05 03 b0 be 73 13 82 3d
       -0.3434693 -0.23625217 -0.34377304 0.06351366
000280 5e 3a 82 be a9 8d 12 be 16 4f c4 3e d4 4c b8 3d
       -0.25435156 -0.14311852 0.38341588 0.08999029
000290 2c ae 21 3e 76 c5 3e 3e ff 23 c7 3e 0d db 51 3e
       0.15789098 0.18630013 0.3889465 0.20493717
0002a0 ef 20 7b 3c 46 11 a5 3d 12 1c 6a 3e 3b 84 49 3e
       0.015327676 0.08059935 0.2286227 0.19679348
0002b0 82 77 69 3c 20 ee f7 3d a0 55 15 3e c6 94 ab 3d
       0.014249684 0.121059656 0.14583445 0.08377986
0002c0 39 e4 30 3e d7 75 9e 3e 30 97 64 3e 45 85 67 be
       0.1727456 0.3094928 0.22323298 -0.22609432
0002d0 30 51 0d be e0 2e 0e 3d bb 6b db bd 7d e5 c5 3c
       -0.13800502 0.034712672 -0.10713907 0.02415728
0002e0 68 e4 f3 3c b3 d1 87 3d 9c 72 7a 3e 9e 85 ae be
       0.029771999 0.06631794 0.24457783 -0.34086317
0002f0 e0 f8 3f 3e ed a9 25 3e 64 7f a2 bd 68 00 32 ba
       0.18747282 0.16178103 -0.07934454 -0.00067902217
000300 1a 4f 0c be c6 05 8d be 92 81 aa be 37 91 c2 3d
       -0.1370205 -0.27543467 -0.3330198 0.09500354
000310 c4 61 04 3e ac e8 3a be 87 7e 68 3e 09 ab 7a be
       0.1292792 -0.1825282 0.22704516 -0.24479307
000320 69 cb 56 3e bb 1e 7b be 27 b5 26 be b4 72 d5 3d
       0.20976032 -0.24523441 -0.16280042 0.104222685
000330 26 d2 9c be 36 58 53 be 0a b4 b6 bd bc 0d 6d be
       -0.3062908 -0.20639119 -0.089210585 -0.2314977
000340 b2 bf 9a be ed c6 0f be 69 46 af bd c1 24 b2 bd
       -0.30224377 -0.14040728 -0.085583515 -0.086984165
000350 c5 81 0b 3b 49 17 e3 bd 9e 0b 50 be 69 27 3b bd
       0.0021287065 -0.11088426 -0.20316932 -0.04569188
000360 47 51 71 be c0 81 96 be 97 f3 83 3e cb e9 ae be
       -0.23566161 -0.29395866 0.25771782 -0.34162745
000370 91 16 46 bd 17 44 08 be 97 e7 c8 bd b7 6a 07 3e
       -0.048361365 -0.13307224 -0.09809797 0.13224302
000380 b5 19 81 3e d8 6c 2b be 33 7f 48 bd 31 4b 6f be
       0.25214925 -0.1674074 -0.04894943 -0.23368527
000390 42 81 31 3e 36 b6 39 3e 15 8a 8a 3e 7a 4f 75 3e
       0.17334464 0.18135914 0.27058473 0.23956099
0003a0 5c 4e f1 ba 82 36 d2 3d 57 62 81 be af 3c 2e 3e
       -0.0018410194 0.10264303 -0.2527034 0.17015336
0003b0 5a 7c 8a be ef 2a 22 be 18 e5 ab be 46 14 21 be
       -0.27047998 -0.1583669 -0.33573222 -0.1573039
0003c0 1a dd 16 3e 4c e3 25 3e db a6 96 3e 7b 94 64 bd
       0.14732781 0.16199988 0.29424176 -0.055805665
0003d0 ce 43 aa 3e 67 a7 c8 3e 46 a9 8b 3e bf ff bd 3e
       0.33254856 0.39190218 0.27277583 0.3710918
0003e0 98 bf 97 3d 33 d4 a9 3e e0 3a 26 3e ed b3 b7 3e
       0.074095905 0.33169708 0.16233397 0.3587946
0003f0 df 17 fe bd 11 aa b8 3e 51 d3 4b 3e ca 8e ba 3d
       -0.12406897 0.3606725 0.1990483 0.09109266
