KMS/model_epoch_13.pth (torch, 314530 bytes, 44 tensors)

initial_conv.weight f4 [64, 3, 3, 3]
0	0xbd521702	-0.051291473
1	0x3cfdc469	0.030977445
2	0xbdeff5a2	-0.117167726
3	0x3e11590f	0.1419413
4	0xbdf9224b	-0.12164744
5	0x3e07ac45	0.1324931
6	0xbd499769	-0.04921666
7	0x3dc0e53d	0.09418724
8	0xbbe2c6a5	-0.006920653
9	0x3d968f73	0.073515795
10	0x3d188c10	0.03724295
11	0xbd307c9d	-0.04308759
12	0x3d202dca	0.039106168
13	0x3deeb556	0.11655681
14	0xbe3cafcf	-0.1842644
15	0xbd3c5843	-0.04598261
16	0x3ddb27b3	0.107009314
17	0xbe365dd5	-0.17809232
18	0x3c46fbe5	0.012145017
19	0x3b0cc039	0.0021476878
20	0x3d43fcb2	0.04784841
21	0xbc658412	-0.014008539
22	0xbdc48b08	-0.095968306
23	0xbe0db5fc	-0.13838953
24	0x3e02e87b	0.12783997
25	0x3e314683	0.17312054
26	0xbe1ea21e	-0.1549153
27	0x3cbf8ba8	0.023382023
28	0xbe0e0548	-0.13869202
29	0x3e0044cf	0.12526248
30	0x3da60500	0.081064224
31	0x3dac66ca	0.08418043
32	0x3c8360fe	0.01603746
33	0xbda0159c	-0.07816622
34	0x3e335ac0	0.17515087
35	0xbe00620f	-0.12537406
36	0x3e28a088	0.16467488
37	0xbe2b651d	-0.1673779
38	0x3d8137c8	0.063094676
39	0x3e115f08	0.14196408
40	0xbdbcad95	-0.09212796
41	0xbe0eb08a	-0.13934532
42	0x3e0295d0	0.12752461
43	0x3e2df869	0.16989292
44	0xbe082a96	-0.13297495
45	0xbe1e2b19	-0.15446128
46	0x3c8f18f1	0.017467948
47	0xbe34ed03	-0.17668538
48	0x3e25d211	0.16193415
49	0xbe2a83b7	-0.16651808
50	0xbc5d6cff	-0.013514756
51	0x3dd92ffa	0.10604854
52	0x3d8698b7	0.06572097
53	0xbd1c8703	-0.038214695
54	0xbdc9fbed	-0.09862504
55	0xbe3ee31d	-0.18641324
56	0x3e0809cb	0.13284986
57	0xbbf80547	-0.0075689885
58	0x3e1df90b	0.15427034
59	0x3d35525f	0.04426801
60	0xbe2030f0	-0.15643668
61	0xbd041800	-0.03224945
62	0x3e40fefd	0.1884727
63	0xbe2fa2d1	-0.17151953
64	0xbb9a871b	-0.004715813
65	0x3e1d7503	0.15376668
66	0x3d8fea82	0.07027151
67	0xbe4101c0	-0.18848324
68	0x3ddfe40e	0.1093217
69	0x3ce1edba	0.027579177
70	0xbe458394	-0.19288474
71	0x3cce5909	0.02518894
72	0xbe1c94d3	-0.15291147
73	0x3e1e084d	0.15432854
74	0x3d16e49e	0.03683912
75	0xbdc52f27	-0.09628134
76	0x3e39dfae	0.18151733
77	0x3da8860c	0.082286924
78	0x3dbd1b9c	0.09233782
79	0x3dcf8e7e	0.101346
80	0xbdf400b9	-0.119142
81	0x3e28ea7d	0.164957
82	0xbe2e4800	-0.17019653
83	0x3d2cc94f	0.04218417
84	0xbe233887	-0.15939532
85	0xbd160b50	-0.036631882
86	0xbdc2d954	-0.09514108
87	0xbd578bfa	-0.052623726
88	0xbbc185cc	-0.0059058424
89	0xbe0365f2	-0.12831858
90	0x3cf61745	0.030040393
91	0x3cdf83c5	0.027284512
92	0x3e04afdc	0.1295771
93	0x3befdaca	0.007319783
94	0x3e2d84be	0.16945168
95	0xbe1388b4	-0.14407617
96	0xbe08597c	-0.13315386
97	0xbce200c7	-0.027588261
98	0x3d07d34f	0.033160504
99	0xbda71405	-0.08158115
100	0x3dea1d0e	0.11431323
101	0xbe162d7f	-0.14665793
102	0x3d6fb969	0.05852643
103	0x3e1f65fd	0.15566249
104	0x3e45ecbf	0.19328593
105	0xbc372750	-0.011178806
106	0xbdc9ef0a	-0.09860046
107	0x3e1fe224	0.1561361
108	0xbdc843ac	-0.097785324
109	0xbe27dfe2	-0.16393998
110	0xbe4901e4	-0.19629627
111	0xbbaa09ab	-0.005189141
112	0x3d9b5413	0.07584395
113	0x3e0995d9	0.13436069
114	0xbe2a3384	-0.16621214
115	0x3d2c3098	0.04203853
116	0x3d841341	0.06448985
117	0xbd10d3e4	-0.035358325
118	0x3e4b5933	0.19858246
119	0x3cf985f3	0.03045938
120	0xbdf67079	-0.12033171
121	0x3cf5e8bf	0.030018209
122	0x3c8397e6	0.016063642
123	0xbe074d8f	-0.1321318
124	0x3e25229d	0.16126485
125	0x3e298fd2	0.1655877
126	0x3a063d32	0.0005120813
127	0xbd85b1d6	-0.0652806
128	0xbe4b2892	-0.19839695
129	0x3d773a3a	0.060358264
130	0xbe128061	-0.14306785
131	0x3d45a64f	0.048254307
132	0x3980b72d	0.0002455054
133	0x3e33e8e6	0.17569312
134	0x3d0035c9	0.031301294
135	0x3cb5bd18	0.022184893
136	0x3d11ca9f	0.035593625
137	0x3e3e12fe	0.18561932
138	0x3dbd4d04	0.09243205
139	0xbe15316f	-0.14569639
140	0x3d18e5c7	0.037328508
141	0xbe10a2e2	-0.14124635
142	0x3e220e21	0.15825702
143	0xbdae7fec	-0.08520493
144	0xbdeb3101	-0.11483956
145	0x3da0127d	0.07816026
146	0x3dfd3ba6	0.12364893
147	0xbe2f8448	-0.17140305
148	0xbe2df6bc	-0.16988653
149	0xbb967d69	-0.004592587
150	0x3dfbc236	0.12292902
151	0x3e344de2	0.17607835
152	0x3e2d5a19	0.16928901
153	0xbe032820	-0.12808275
154	0x3dab0dca	0.083522394
155	0x3dd7b1f3	0.10531988
156	0xbd26c172	-0.040711828
157	0x3d2e6abc	0.04258226
158	0xbe29c580	-0.16579247
159	0xbe3de7a0	-0.18545389
160	0xbdabad75	-0.08382694
161	0x3db4720b	0.088108145
162	0xbdde0d52	-0.108423844
163	0xbd13beaa	-0.036070503
164	0x3bf3ff1c	0.007446183
165	0xbe07a0ac	-0.13244885
166	0x3e394705	0.18093498
167	0xbe047121	-0.1293378
168	0x3e471633	0.19442062
169	0xbd6c6713	-0.057715487
170	0xbbf27f09	-0.0074003977
171	0xbe42b211	-0.1901324
172	0x3dbef82e	0.0932468
173	0xbe411850	-0.1885693
174	0xb9f3cfaa	-0.00046503294
175	0xbe102d02	-0.14079669
176	0x3dab6587	0.08368974
177	0xbdfeac50	-0.1243521
178	0xbd93f8f1	-0.07225216
179	0x3ca9bbc2	0.020719413
180	0xbd01854b	-0.03162126
181	0x3cc42594	0.0239437
182	0x3e5110b7	0.20416532
183	0xbc6707ef	-0.014101013
184	0x3df0d985	0.117602386
185	0xbd724492	-0.059147425
186	0x3cd126cd	0.025531197
187	0x3e3c85c1	0.18410398
188	0x3d3fe951	0.046853367
189	0xbe0a19e9	-0.13486446
190	0x3e3beb4c	0.18351477
191	0x3c8da8fb	0.01729249
192	0xbe1df057	-0.15423714
193	0xbda22a02	-0.079181686
194	0x3e3e8083	0.18603711
195	0xbd3fc324	-0.04681696
196	0x3e31cc47	0.17363082
197	0xbca398c3	-0.019970303
198	0x3db85804	0.09001163
199	0xbd1878d1	-0.037224595
200	0x3e2c1c1c	0.16807598
201	0xbe59dde0	-0.21276045
202	0xbe36b54a	-0.17842594
203	0x3ddb0355	0.10693995
204	0xbde41de5	-0.111385144
205	0x3d730ee6	0.05934038
206	0xbcc3c04f	-0.02389541
207	0x3d396a9e	0.045267694
208	0xbd13b36e	-0.03605979
209	0x3d9c6197	0.07635801
210	0xbdcfbdf1	-0.1014365
211	0xbd719e54	-0.058988884
212	0x3e269a64	0.16269833
213	0xbc3779f6	-0.011198511
214	0xbe4b53b0	-0.19856143
215	0x3e34dfe3	0.17663531
216	0xbcb7112d	-0.022347057
217	0xbe3265b9	-0.17421617
218	0x3cdd3652	0.027003441
219	0x3e1a5e67	0.15075074
220	0xbe34c6b2	-0.17653921
221	0x3e20e36c	0.15711755
222	0x3d651700	0.055930138
223	0xbe05e74b	-0.13076513
224	0x3e13670e	0.14394781
225	0x3cda39f9	0.026638972
226	0x3cbfcd35	0.02341328
227	0xbd8f2727	-0.069898896
228	0x3e39b140	0.18134022
229	0xbdbbb6cb	-0.09165724
230	0x3e2b5e54	0.16735202
231	0x3e03e00e	0.12878439
232	0xbcf9713c	-0.030449502
233	0x3c91c454	0.017793812
234	0x3cffd35d	0.031228716
235	0x3cde4d7f	0.027136562
236	0xbe1598d3	-0.14609079
237	0x3d5bcb7d	0.05366086
238	0xbe0f4a4d	-0.13993187
239	0xbe35a22c	-0.17737645
240	0x3e0be75c	0.13662475
241	0xbc7193ee	-0.014744742
242	0xbdc10050	-0.09423888
243	0xbbb398c6	-0.0054808585
244	0xbe06eed5	-0.13177045
245	0x3e185ba8	0.14878714
246	0xbd574ad1	-0.052561585
247	0xbe220147	-0.158208
248	0x3b0893a5	0.0020839956
249	0x3e39bcd0	0.18138433
250	0xbd11d02b	-0.035598915
251	0x3de678fe	0.11253546
252	0x3e12aee9	0.14324535
253	0x3dd9f239	0.106419034
254	0xbc2f05b8	-0.010682516
255	0xbe2e152d	-0.17000265

initial_conv.bias f4 [64]
0	0x3db00c31	0.08596075
1	0xbcfc00c0	-0.030762076
2	0xbe285e6e	-0.16442272
3	0x3cf77ae9	0.030209975
4	0x3dde7e98	0.108639896
5	0xbe086f1f	-0.1332364
6	0xbe1505fc	-0.14553064
7	0xbd258c4a	-0.040416993
8	0x3d1cd493	0.038288664
9	0xbe21133a	-0.1572999
10	0xbe42d77c	-0.19027513
11	0x3be48bb7	0.006974663
12	0x3cf55bab	0.029950937
13	0x3d4ee5c6	0.050512098
14	0xbdd73e3c	-0.10509917
15	0xbdedf525	-0.11619023
16	0xbd168b8e	-0.036754183
17	0x3cbeb66c	0.023280345
18	0x3daeb22a	0.08530076
19	0x3b92f4da	0.004484755
20	0xbd1cc3d4	-0.038272694
21	0x3d7d730e	0.061877303
22	0x3e0a3319	0.13496055
23	0xbdf468d0	-0.11934054
24	0xbd2c640d	-0.042087603
25	0x3e1f030e	0.15528509
26	0xbe000608	-0.125023
27	0xbdddf6c8	-0.108380854
28	0x3e0c6982	0.13712123
29	0x3e3fef80	0.18743706
30	0x3e2fedd9	0.17180575
31	0xbe24dc21	-0.16099598
32	0xbe224b8a	-0.15849128
33	0xbe13888a	-0.14407554
34	0xbd491011	-0.049087588
35	0x3de3a51e	0.11115478
36	0x3e408951	0.18802382
37	0xbe3e0d09	-0.1855966
38	0x3db7a471	0.089669116
39	0x3da5ec20	0.08101678
40	0xbd206089	-0.039154563
41	0x3db7e528	0.08979255
42	0xbe14b426	-0.14521846
43	0x3df34e45	0.11880163
44	0x3e245536	0.1604813
45	0xbc2f2211	-0.010689274
46	0x3dd3a4b8	0.10334152
47	0x39a5b5ae	0.00031606614
48	0x3d8b8684	0.06812766
49	0x3e027750	0.12740827
50	0x3d2a41df	0.041566726
51	0xbdd3a3af	-0.103339545
52	0xbe1884bb	-0.14894383
53	0x3d714449	0.058903012
54	0x3e122015	0.14270051
55	0xbe261a2d	-0.16220923
56	0x3d3aed5d	0.045636524
57	0x3e1fd71a	0.15609398
58	0x3e11005f	0.14160298
59	0xbe07d68d	-0.13265438
60	0x3dcf0205	0.10107807
61	0x3db20c26	0.086937234
62	0x3db1cc56	0.08681552
63	0x3d258f63	0.040419947

blocks.0.beta f4 [1, 64, 1, 1]
0	0xbd874ed7	-0.066068344
1	0x3d9142af	0.07092797
2	0x3dfe3ee8	0.12414342
3	0x3dbaea2b	0.09126695
4	0xbda772a5	-0.081761636
5	0x3db5607c	0.088562936
6	0xbdbe985d	-0.09306405
7	0xbd9ee748	-0.07758957
8	0x3db8b889	0.09019572
9	0x3d7e32d1	0.06206018
10	0xbd6c7745	-0.05773093
11	0x3dcfd03c	0.101471394
12	0x3d88d21e	0.06680702
13	0x3d29b489	0.041431937
14	0xbd89c544	-0.067270786
15	0x3d5ffe1c	0.054685697
16	0x3dae15cc	0.08500251
17	0x3d1f16d5	0.038840134
18	0x3d9a8749	0.07545335
19	0xbc0957f3	-0.008382785
20	0xbd4a3059	-0.049362514
21	0xbd206dfa	-0.03916738
22	0xbd713fe2	-0.058898814
23	0xbd22bbb3	-0.039729785
24	0xbdae4d89	-0.085108824
25	0x3d74fbc9	0.059810434
26	0xbc873ec0	-0.016509414
27	0xbb3efc36	-0.0029142029
28	0x3d8c8dd0	0.06862986
29	0xbd2fccb1	-0.04291982
30	0x3d87e621	0.066356905
31	0x3cd6ded1	0.026229294
32	0x3d53c3d7	0.05170044
33	0x3d672b4f	0.056437787
34	0xbdc38a6a	-0.09547885
35	0xbc8e2038	-0.017349347
36	0x3dc476fe	0.095930085
37	0x3e2cf52a	0.16890398
38	0x3d85e729	0.06538231
39	0x3cabb7d0	0.020961672
40	0xbda09d94	-0.07842556
41	0xbdc97999	-0.09837646
42	0x3c946469	0.018114286
43	0x3cc832c7	0.024438275
44	0x3d87561e	0.066082224
45	0xbd514707	-0.051093128
46	0xbca368ba	-0.019947398
47	0x3d9de020	0.07708764
48	0x3db05a52	0.08610977
49	0x3d9f2f93	0.07772746
50	0x3c89e448	0.016832486
51	0x3da8719e	0.08224796
52	0x3d0cc248	0.03436497
53	0xbdd1a2fe	-0.102361664
54	0xbd709ec5	-0.058745164
55	0xbd7e1c1e	-0.062038533
56	0xbdd55834	-0.10417214
57	0x3dbf4690	0.093396306
58	0xbd504de5	-0.050855536
59	0xbd89a1c7	-0.0672031
60	0xbdb71014	-0.089386135
61	0x3d1d9071	0.03846783
62	0xbc0dcdc1	-0.008655013
63	0xbd363411	-0.04448325

blocks.0.gamma f4 [1, 64, 1, 1]
0	0x00000000	0.0
1	0x00000000	0.0
2	0x00000000	0.0
3	0x00000000	0.0
4	0x00000000	0.0
5	0x00000000	0.0
6	0x00000000	0.0
7	0x00000000	0.0
8	0x00000000	0.0
9	0x00000000	0.0
10	0x00000000	0.0
11	0x00000000	0.0
12	0x00000000	0.0
13	0x00000000	0.0
14	0x00000000	0.0
15	0x00000000	0.0
16	0x00000000	0.0
17	0x00000000	0.0
18	0x00000000	0.0
19	0x00000000	0.0
20	0x00000000	0.0
21	0x00000000	0.0
22	0x00000000	0.0
23	0x00000000	0.0
24	0x00000000	0.0
25	0x00000000	0.0
26	0x00000000	0.0
27	0x00000000	0.0
28	0x00000000	0.0
29	0x00000000	0.0
30	0x00000000	0.0
31	0x00000000	0.0
32	0x00000000	0.0
33	0x00000000	0.0
34	0x00000000	0.0
35	0x00000000	0.0
36	0x00000000	0.0
37	0x00000000	0.0
38	0x00000000	0.0
39	0x00000000	0.0
40	0x00000000	0.0
41	0x00000000	0.0
42	0x00000000	0.0
43	0x00000000	0.0
44	0x00000000	0.0
45	0x00000000	0.0
46	0x00000000	0.0
47	0x00000000	0.0
48	0x00000000	0.0
49	0x00000000	0.0
50	0x00000000	0.0
51	0x00000000	0.0
52	0x00000000	0.0
53	0x00000000	0.0
54	0x00000000	0.0
55	0x00000000	0.0
56	0x00000000	0.0
57	0x00000000	0.0
58	0x00000000	0.0
59	0x00000000	0.0
60	0x00000000	0.0
61	0x00000000	0.0
62	0x00000000	0.0
63	0x00000000	0.0

blocks.0.conv1.weight f4 [64, 64, 1, 1]
0	0xbd23c0a0	-0.039978623
1	0xbdb7f790	-0.08982766
2	0x3dc73aa2	0.0972798
3	0x3d30ba59	0.043146465
4	0xbe519ae7	-0.20469247
5	0x3d0ca08e	0.034332804
6	0xbd5cb615	-0.053884584
7	0x3d54ac76	0.051922284
8	0xbd923276	-0.07138531
9	0xbd9be599	-0.07612152
10	0x3c50ebc6	0.012751525
11	0xbca7098c	-0.020390294
12	0xbd8ed30f	-0.0697385
13	0xbd35c736	-0.044379435
14	0x3e955723	0.29168043
15	0x3e17b902	0.14816669
16	0xbd9211c1	-0.071322925
17	0xbdbfb0b3	-0.093598746
18	0x3d77465a	0.060369827
19	0xbd9114da	-0.07084055
20	0x3d0aaa49	0.033853803
21	0xbdf106e0	-0.117688894
22	0xbdc1da8a	-0.09465511
23	0xbd92ae5e	-0.07162164
24	0x3d91b4b3	0.07114544
25	0xbd883fb0	-0.066527724
26	0x3dddb9eb	0.10826477
27	0x3cc9f14e	0.024651196
28	0x3d31cc37	0.043407645
29	0xbd076a7c	-0.033060536
30	0xbd4b2891	-0.049599234
31	0x3dc1a727	0.0945571
32	0x3d0494b6	0.032368384
33	0x3e3111aa	0.17291895
34	0x3da48d69	0.08034784
35	0xbc9ddb67	-0.019269658
36	0xbd6277a1	-0.05528987
37	0x3d85a7ee	0.06526171
38	0x3d38fc8f	0.045162734
39	0xbde7ada6	-0.11312418
40	0x3d5d1f53	0.05398495
41	0x3d3008c1	0.0429771
42	0x3e4286dc	0.18996757
43	0x3cccefc8	0.02501668
44	0xbd45365c	-0.048147544
45	0x3db08c79	0.08620543
46	0xbda40692	-0.08009066
47	0xbdbd8dae	-0.09255539
48	0x3dbc0a70	0.09181678
49	0xbe22637c	-0.15858263
50	0xbd88a1ba	-0.06671472
51	0x3d5ab924	0.05339922
52	0xbd490e0f	-0.049085673
53	0x3daabab4	0.08336392
54	0x3daca874	0.084305674
55	0x3e006191	0.12537219
56	0xbe0f7291	-0.14008547
57	0xbe1c492d	-0.1526229
58	0xbd92dddf	-0.07171225
59	0x3c222413	0.009896296
60	0x3db6bfff	0.08923339
61	0xbdf10034	-0.11767617
62	0x3d02c599	0.031926725
63	0x3bb1b679	0.0054233638
64	0x3b8ae7ad	0.0042390437
65	0x3d5ba1ef	0.05362123
66	0x3d20bd9e	0.039243333
67	0xbdc72051	-0.09722961
68	0xbd0071db	-0.03135858
69	0x3de54f3b	0.11196753
70	0xbde601bd	-0.112308
71	0x3dbd3ecc	0.09240493
72	0x3d837450	0.06418669
73	0xbd75b688	-0.05998853
74	0x3d1c85d0	0.03821355
75	0x3d507f4d	0.050902653
76	0xbc85e171	-0.01634285
77	0xbd9874e0	-0.07444167
78	0x3b4d1821	0.00312949
79	0x3d636086	0.055511974
80	0x3ccd6d08	0.025076404
81	0x3c8dcc7f	0.017309425
82	0xbdd1f9c8	-0.1025272
83	0xbd717675	-0.05895086
84	0xbe1d1068	-0.1533829
85	0x3e062ffd	0.13104244
86	0xbdeea933	-0.11653366
87	0x3dc83037	0.09774821
88	0xbd2d8828	-0.042366177
89	0x3e0c369c	0.13692707
90	0xbd8ee2de	-0.06976865
91	0xbdf5db40	-0.12004709
92	0xbdef4928	-0.11683875
93	0x3d8549be	0.06508206
94	0xbb086f46	-0.0020818277
95	0xbe356973	-0.17716007
96	0x3d2f5cd5	0.04281314
97	0x3cde9c59	0.027174162
98	0x3d595dc6	0.053067945
99	0xbde127a3	-0.10993888
100	0xbcb579dd	-0.022152836
101	0x3d2dc68a	0.04242567
102	0xbd670213	-0.056398463
103	0xbde1b900	-0.11021614
104	0xbcb11083	-0.021614319
105	0x3df7015e	0.12060808
106	0xba204c4a	-0.00061148836
107	0x3abe9b87	0.00145422
108	0x3dbf9aa6	0.09355669
109	0xbe099090	-0.13434052
110	0x3e37725f	0.17914723
111	0xbdf7c5a7	-0.12098246
112	0x3c9df136	0.019280057
113	0x3ddd89fe	0.108173355
114	0x3d5384e2	0.0516404
115	0x3d4d0453	0.050052952
116	0xbe412368	-0.18861163
117	0xbd87cf91	-0.06631387
118	0xbd52c6e4	-0.051459208
119	0x3dec6000	0.11541748
120	0x3dc870f0	0.09787166
121	0x3cf17757	0.029475851
122	0xbd18e342	-0.037326105
123	0x3b0f6edb	0.0021886143
124	0x3d7111e7	0.058854964
125	0x3e32dcc4	0.17467028
126	0x3d828174	0.063723475
127	0x3d0fdb55	0.03512128
128	0xbc84ff84	-0.01623512
129	0xbde07c9a	-0.10961266
130	0x3ec1369d	0.3773698
131	0xbd82ae5c	-0.06380913
132	0xbcb50d2a	-0.022101004
133	0x3e03277e	0.12808034
134	0x3df2eb16	0.11861245
135	0x3e489d51	0.19591261
136	0x3c77f3a8	0.015133776
137	0x3d5eaa73	0.05436177
138	0xbc5993fa	-0.013279909
139	0x3d87ab82	0.066245094
140	0x3bd48764	0.0064858664
141	0x3dd1c1cb	0.10242041
142	0x3da1fa31	0.07909048
143	0x3de5fc2e	0.1122974
144	0x3c708942	0.014681162
145	0xbd1aec0e	-0.037822776
146	0xbdc81473	-0.097695254
147	0x3c540002	0.012939455
148	0xbde09304	-0.10965541
149	0xbd48b12b	-0.048997086
150	0xbb570c1c	-0.0032813614
151	0x3d82d48b	0.063881956
152	0xbbf6a5ac	-0.007527074
153	0xbd6623f6	-0.05618664
154	0xbcdb670a	-0.026782531
155	0x3e14986b	0.14511268
156	0xbb9dbf40	-0.0048140585
157	0xbe2b3bc4	-0.16722018
158	0xbda455b7	-0.08024161
159	0x3dacc14a	0.084353045
160	0x3dee85cf	0.11646616
161	0x3cf442eb	0.029817065
162	0xbe03398c	-0.12814921
163	0xbd1f7a04	-0.038934723
164	0xbdd8c060	-0.105835676
165	0x3e0de776	0.13857827
166	0xbd84d6f5	-0.06486312
167	0x3d48b699	0.049002264
168	0xbc2a1f7e	-0.010383485
169	0x3cefaeb6	0.029258113
170	0x3c5214ee	0.012822373
171	0x3c846f80	0.016166449
172	0xbdd8e5d7	-0.105907135
173	0xbcdd1ed2	-0.026992235
174	0xbb17aec6	-0.0023144945
175	0x3de334e2	0.11094071
176	0xbcfadcf8	-0.030622944
177	0xbe083eae	-0.1330516
178	0x3ce78a0e	0.028264072
179	0xbd4fc7f5	-0.050727803
180	0xbd6f04c8	-0.05835417
181	0x3daf48ef	0.08558833
182	0x3dd134e4	0.10215166
183	0xbd478236	-0.048708163
184	0x3e031c35	0.12803729
185	0xbe3ba7e3	-0.18325762
186	0xbe1d651f	-0.15370606
187	0xbd07a5e2	-0.033117183
188	0xbc9518b2	-0.018200252
189	0xbe191b54	-0.14951831
190	0xbdd3e84b	-0.10347041
191	0xbbddbbaa	-0.006766756
192	0xbd891ecf	-0.066953294
193	0xbd118ba9	-0.03553358
194	0x3e2d5e63	0.16930537
195	0x3b9a458b	0.004707997
196	0x3d4b015c	0.049561843
197	0x3d30420f	0.04303175
198	0x3c0bc2f4	0.008530367
199	0x3d4f5833	0.050621223
200	0xbd885c98	-0.06658286
201	0x3ddd4f05	0.108060874
202	0x3d48f0d4	0.049057797
203	0x3bddb20e	0.0067656105
204	0xbd4a38a8	-0.049370438
205	0x3e1c2c41	0.15251257
206	0x3e1359d1	0.14389731
207	0x3c5d14a8	0.013493694
208	0x3d62902b	0.05531327
209	0x3ce3398d	0.027737403
210	0xbd464f3d	-0.04841541
211	0xbe2ba130	-0.16760707
212	0xbe121b25	-0.14268167
213	0x3d989f31	0.07452238
214	0x3db5f882	0.0888529
215	0xbdbef031	-0.093231566
216	0xbd2991e2	-0.04139889
217	0xbc894756	-0.016757648
218	0xbe03d211	-0.12873103
219	0xbe341d28	-0.17589247
220	0x3e3ce97e	0.18448445
221	0xbd9b38b7	-0.07579177
222	0x3e29a219	0.16565742
223	0xbc92b917	-0.017910523
224	0x3e4efe0e	0.20214102
225	0x3d14f68c	0.036367938
226	0x3dc168ed	0.09443841
227	0xbdade885	-0.08491615
228	0xba08588c	-0.0005201183
229	0xbc5d783a	-0.013517434
230	0x3d00504f	0.03132659
231	0x3e0061f6	0.12537369
232	0x3ce1ac24	0.027547903
233	0xbca9de45	-0.02073587
234	0x3d0a5cf9	0.033780072
235	0xbe31f910	-0.17380166
236	0x3dbc7e36	0.0920376
237	0x3c53417e	0.0128940325
238	0xbcc84c13	-0.024450338
239	0xbe13a390	-0.14417863
240	0x3e4e696f	0.20157407
241	0x3e31cc12	0.17363003
242	0x3dbf3905	0.093370475
243	0xbe24241b	-0.16029398
244	0xbce796d1	-0.028270157
245	0x3d459d39	0.048245642
246	0xbde23a8d	-0.11046324
247	0xbd39fa75	-0.04540487
248	0xb9785c58	-0.00023685524
249	0xbd2484eb	-0.040165823
250	0xbe08d662	-0.1336303
251	0x3e26570f	0.16244148
252	0x3d68e65e	0.05686032
253	0x3d0d6061	0.034515742
254	0xbd84ad5a	-0.06478377
255	0x3d147183	0.036241066

blocks.0.conv2.weight f4 [64, 1, 3, 3]
0	0xbd96b194	-0.07358089
1	0x3e9488bf	0.2901058
2	0xbe4fcf07	-0.20293818
3	0x3e9ae7ed	0.3025507
4	0x3e27d947	0.16391478
5	0x3e46ea1a	0.1942524
6	0xbe046859	-0.1293043
7	0x3e179ecb	0.14806668
8	0x3dd71d4b	0.10503634
9	0xbe626581	-0.22109033
10	0xbe4c6118	-0.19958913
11	0x3e067273	0.13129596
12	0xbc631ae3	-0.013861391
13	0x3e1a01f0	0.15039802
14	0x3e7ce16b	0.24695365
15	0xbe079854	-0.13241702
16	0x3d9802f2	0.07422437
17	0xbe8bc4a4	-0.27298462
18	0x3e4a649e	0.19764945
19	0x3dd90e00	0.105983734
20	0xbe3ba08d	-0.18322964
21	0x3e8d1dff	0.27561948
22	0xbdbcc0c9	-0.09216458
23	0x3e0f3225	0.13983972
24	0x3e5a2a14	0.21305114
25	0x3ead49c5	0.33845344
26	0xbd51aec9	-0.05119208
27	0xbe3bb90e	-0.18332312
28	0xbea69379	-0.32534388
29	0x3e0bdbce	0.13658068
30	0x3dcdabce	0.10042535
31	0xbea1233a	-0.31472188
32	0xbe9067b9	-0.28204134
33	0x3dfae854	0.12251344
34	0xbe5c71cb	-0.21527784
35	0xbe4cfcf1	-0.20018364
36	0xbe2908f4	-0.16507322
37	0xbe91ba23	-0.28462324
38	0xbe125c90	-0.14293122
39	0x3d1e80e7	0.03869715
40	0x3d087ec3	0.033324014
41	0xbdee7133	-0.11642685
42	0xbd9c97d7	-0.07646149
43	0x3e04ca94	0.12967902
44	0xbd8cc182	-0.06872846
45	0xbe36fd27	-0.17870007
46	0x3e6a60da	0.22888508
47	0x3e3fbd38	0.18724525
48	0xbd2d545a	-0.042316772
49	0xbe824d25	-0.25449482
50	0x3d735932	0.059411235
51	0xbe110847	-0.14163314
52	0xbe135cd8	-0.14390886
53	0xbe100510	-0.14064431
54	0xbe0e1304	-0.13874441
55	0x3dce6946	0.10078673
56	0x3e610594	0.21974784
57	0xbe82a346	-0.25515193
58	0xbd510e8e	-0.05103927
59	0x3d8d3456	0.06894748
60	0x3e4f7169	0.20258106
61	0xbe769191	-0.24078967
62	0x3e0efdc9	0.13963999
63	0x3e10e566	0.14150009
64	0xbeaad53d	-0.33365813
65	0xbdbd6133	-0.09247055
66	0x3de11ea8	0.10992175
67	0x3da3e300	0.08002281
68	0xbd810cd1	-0.06301273
69	0xbce69067	-0.028145028
70	0xbe004b51	-0.12528731
71	0xbe916d08	-0.28403497
72	0xbde83086	-0.1133738
73	0xbea44f05	-0.32091537
74	0xbd923058	-0.07138127
75	0x3e8d3e70	0.275867
76	0x3e015ce3	0.1263309
77	0x3dfd1233	0.12356987
78	0x3df75283	0.12076285
79	0xbdce5485	-0.100747146
80	0x3e373350	0.17890668
81	0xbe25f96a	-0.16208425
82	0xbdd11ba3	-0.102103494
83	0xbe0fa745	-0.14028652
84	0xbb907866	-0.004408884
85	0x3e5b6558	0.21425378
86	0x3ebd0e1c	0.36924827
87	0x3e27875a	0.16360226
88	0x3e12a01b	0.14318888
89	0x3e0a3d25	0.13499887
90	0xbe831a65	-0.25606075
91	0xbeaee354	-0.34157813
92	0x3e36d6bb	0.1785535
93	0xbe0ba30f	-0.1363642
94	0x3d665dfe	0.05624198
95	0xbe794d22	-0.2434583
96	0xbebe14d0	-0.37125254
97	0xbe4f7c58	-0.20262277
98	0x3da5b291	0.080906995
99	0x3dab200f	0.08355724
100	0xbdad62f7	-0.08466142
101	0xbdca7e72	-0.09887399
102	0xbdcd53b4	-0.10025731
103	0xbeab9235	-0.33509985
104	0xbe4f0299	-0.20215835
105	0x3dec337c	0.11533257
106	0xbe4b915c	-0.19879669
107	0x3db73174	0.08944979
108	0xbe234828	-0.15945494
109	0x3e4398c4	0.19101244
110	0x3e029693	0.12752752
111	0x3eaee7db	0.34161267
112	0x3ea2d027	0.31799433
113	0x3c3c5d95	0.011496921
114	0xbdc7b61e	-0.09751533
115	0x3ddd917c	0.108187646
116	0xbd8931aa	-0.06698926
117	0xbdd07bdf	-0.101798765
118	0x3d91866c	0.07105717
119	0x3de37e80	0.11108112
120	0xbd4ce6e8	-0.050024897
121	0x3e8ea329	0.27858856
122	0xbe460fe1	-0.19341995
123	0x3dd77a10	0.105213284
124	0x3e724328	0.2365843
125	0x3e77b733	0.24190979
126	0xbc521b72	-0.012823926
127	0xbed455bd	-0.41471663
128	0xbdd70ff7	-0.10501092
129	0xbe24d888	-0.16098225
130	0xbe06c018	-0.13159215
131	0xbef391df	-0.47572228
132	0xbe009258	-0.12555826
133	0xbe368b6a	-0.1782662
134	0xbe14dcb4	-0.14537317
135	0xbdd9150c	-0.105997175
136	0xbcad0304	-0.021119602
137	0x3d8b2d0f	0.067957036
138	0x3dc33379	0.09531302
139	0xbc839d8c	-0.016066335
140	0x3d0206f7	0.031744923
141	0x3db6d955	0.089281715
142	0xbeab4ad8	-0.3345554
143	0xbe138a74	-0.14408284
144	0xbe2e44c6	-0.17018422
145	0xbe3e269b	-0.18569414
146	0xbe92ca41	-0.28669932
147	0xbe3143f4	-0.17311078
148	0x3e01ab36	0.12662968
149	0xbe848a42	-0.25886732
150	0xbe666d9e	-0.22502753
151	0x3e66d99a	0.22543946
152	0x3e4088bd	0.18802162
153	0xbd5e8589	-0.054326568
154	0x3e096f6e	0.13421413
155	0xbdec2b29	-0.1153167
156	0xbd1dafa2	-0.038497575
157	0xbe8f7404	-0.280182
158	0x3e00bb8a	0.1257154
159	0x3d4b5157	0.04963812
160	0xbeca6c53	-0.3953577
161	0xbeb505a1	-0.35355857
162	0x3e18a02c	0.1490485
163	0x3ec0d68d	0.3766369
164	0x3e00cd71	0.1257837
165	0x3e1cdb61	0.15318061
166	0xbd79bce7	-0.060971167
167	0xbe19fb96	-0.15037379
168	0x3dc37582	0.09543897
169	0x3e1e2a27	0.15445767
170	0x3d67bcc0	0.05657649
171	0xbcdf6690	-0.027270585
172	0x3d0365dc	0.032079563
173	0xbe9fad69	-0.3118699
174	0x3e80946f	0.25113246
175	0x3d657915	0.056023676
176	0x3de80a1a	0.11330052
177	0x3d8430b4	0.06454602
178	0xbd9a2f29	-0.07528526
179	0xbeb309c2	-0.34968382
180	0x3d0648fb	0.032784443
181	0x3dd4b46d	0.10385976
182	0x3c6c04ef	0.014405473
183	0x3e2abeea	0.1667439
184	0xbdbc4881	-0.091935165
185	0xbe6c5f0d	-0.23083134
186	0xbc72e07d	-0.01482403
187	0xbeb18924	-0.34674942
188	0xbe751f5f	-0.23937748
189	0xbe6e38ab	-0.23263805
190	0x3e92f87b	0.287052
191	0x3eb3424e	0.35011524
192	0xbe29c075	-0.16577323
193	0xbdfeea7a	-0.124470666
194	0x3eaadd16	0.333718
195	0x3cae5ff3	0.021285987
196	0x3e2a52b1	0.16633107
197	0xbdffa7e4	-0.124831945
198	0xbeba1c12	-0.3634954
199	0xbebfe30e	-0.37477916
200	0xbe21fce6	-0.1581913
201	0x3e450ade	0.19242427
202	0x3e6e4a7e	0.23270604
203	0x3dac18f2	0.084031954
204	0xbe0a2bdd	-0.13493295
205	0xbda61cab	-0.08110937
206	0xbea785f6	-0.32719392
207	0xbe229454	-0.15876895
208	0xbe9663d4	-0.29373038
209	0xbdc55ff3	-0.096374415
210	0x3d28ee01	0.041242603
211	0x3d00966b	0.03139345
212	0xbe12df53	-0.14343004
213	0xbe426476	-0.18983635
214	0x3e81958e	0.25309414
215	0x3e14a62d	0.14516516
216	0xbdffcd5d	-0.12490342
217	0xbec94e3d	-0.39317504
218	0x3e15c7a0	0.14626932
219	0xbd82aad2	-0.06380238
220	0xbebe53cd	-0.3717331
221	0xbe96f010	-0.29480028
222	0x3e4e73bf	0.20161341
223	0x3e488670	0.19582534
224	0xbe7c3ea1	-0.24633266
225	0xbe37efdf	-0.17962597
226	0xbe48d67d	-0.19613071
227	0x3db05b7a	0.08611198
228	0xbe8173b8	-0.252836
229	0xbe3680e1	-0.17822601
230	0xbec47466	-0.38370055
231	0xbec3df99	-0.3825653
232	0xbed2d9e4	-0.41181862
233	0x3e64a3ed	0.22328158
234	0xbdc07f2d	-0.09399257
235	0x3e8b3b29	0.27193573
236	0x3e9159de	0.28388876
237	0x3efdd826	0.4957897
238	0x3e535009	0.20636
239	0x3f062cf9	0.5241237
240	0xbe19e878	-0.15030086
241	0x3eca9cad	0.3957266
242	0x3e9a220c	0.301041
243	0x3dc730e8	0.09726125
244	0xbe9cf657	-0.30656692
245	0xbd27ae3c	-0.040937647
246	0xbe7d30de	-0.24725673
247	0x3d4c5913	0.049889635
248	0x3c9b53fa	0.018960942
249	0xbea347ba	-0.3189066
250	0xbe99bb23	-0.30025586
251	0xbeba4fe8	-0.3638909
252	0xbe22a0f5	-0.15881713
253	0x3e82ff49	0.25585392
254	0xbe0648d5	-0.1311372
255	0x3e18dfda	0.14929143

blocks.0.conv3.weight f4 [64, 64, 1, 1]
0	0x3db5d906	0.088792846
1	0xbbb38d2a	-0.0054794746
2	0x3c506d9a	0.012721444
3	0xbd72bda9	-0.059262905
4	0x3c3f4690	0.011674538
5	0x3d81903c	0.06326339
6	0x3e21e557	0.15810142
7	0x3d973e63	0.07384946
8	0x3d6a5093	0.057205748
9	0x3cf720de	0.03016704
10	0x3d022340	0.0317719
11	0x3ddc41d5	0.10754744
12	0x3d8aa75e	0.06770204
13	0x3da24ddc	0.07925007
14	0xbd728be5	-0.059215445
15	0x3d59b36f	0.053149637
16	0x3c60f5f3	0.013730514
17	0x3d6eb1da	0.05827508
18	0x3c7fff53	0.015624839
19	0xbc15e096	-0.009147784
20	0x3dc71ffc	0.097228974
21	0x3d58c67d	0.05292367
22	0x381018f1	3.4355504e-05
23	0xbdb2d81a	-0.08732624
24	0x3b226038	0.002477659
25	0x3d585186	0.05281212
26	0x3e4554f2	0.19270685
27	0x3d9761d2	0.073917046
28	0x3d583669	0.052786265
29	0x3e501071	0.20318772
30	0x3c99648d	0.018724704
31	0xbd611ead	-0.054960895
32	0xbb40712a	-0.0029364326
33	0x3d79501f	0.060867425
34	0xbcb8e90a	-0.02257206
35	0x3d5614ff	0.052266117
36	0x3d1a48c4	0.03766705
37	0x3d6a57a5	0.05721249
38	0x3e0af18e	0.13568708
39	0xbd60ab9c	-0.05485116
40	0x3e463a6a	0.1935822
41	0x3cb700d6	0.022339266
42	0x3c831ef9	0.01600598
43	0xbda0ba30	-0.078480124
44	0x3cc5d0a5	0.024147341
45	0xbd9d564a	-0.07682474
46	0x3c9e50df	0.019325672
47	0x3c8934cf	0.016748814
48	0x3e64cd97	0.22344051
49	0xbdbed201	-0.09317399
50	0x3d90b61b	0.07065984
51	0x3dd8895c	0.10573074
52	0x3da71762	0.08158757
53	0x3d407812	0.046989508
54	0x3dcc115e	0.0996425
55	0x3cdad241	0.026711585
56	0xbe131c97	-0.14366375
57	0xbdba8858	-0.09108037
58	0x3dff4173	0.12463655
59	0x3dc8eb04	0.09810451
60	0xbbb9360b	-0.0056521944
61	0x3c92bafd	0.017911429
62	0x3d6fcd63	0.05854548
63	0x3e04404b	0.12915151
64	0xbd51271c	-0.05106269
65	0xbc1f628b	-0.009728084
66	0x3d6fb76f	0.058524545
67	0xbdd423a6	-0.10358362
68	0xbe0ee1e8	-0.13953364
69	0x3d80ba58	0.06285542
70	0x3d5caa17	0.053873148
71	0xbdc0c93f	-0.09413385
72	0x3dea6ee6	0.114469334
73	0xbe25a8a8	-0.16177619
74	0x3e5fd8da	0.21860066
75	0x3cc773d9	0.024347233
76	0xbda1af56	-0.07894771
77	0x3d081ab3	0.033228587
78	0x3d9c3133	0.076265715
79	0xbd832ace	-0.06404649
80	0xbd950102	-0.07275583
81	0xbe310249	-0.17286028
82	0xbdd4188f	-0.10356247
83	0xbd6f2cbc	-0.05839227
84	0xbde4b34d	-0.111670114
85	0xbb31acc2	-0.0027111028
86	0xbd9f53a3	-0.07779624
87	0x3d97a2e7	0.07404118
88	0x3de243ff	0.110481255
89	0x3bcadf91	0.006191202
90	0xbdb8cd09	-0.09023482
91	0xbc44c411	-0.0120096365
92	0xbe353cfe	-0.17699048
93	0xbe8135c0	-0.2523632
94	0x3db90ef5	0.09036056
95	0x3d75e7fa	0.060035683
96	0xbc8ff56a	-0.017573077
97	0xbe0b56ea	-0.13607374
98	0x3da2d788	0.079512656
99	0x3d6b7a14	0.05748947
100	0xbdc148e9	-0.09437735
101	0xbca0c862	-0.0196268
102	0xbd89fd36	-0.06737749
103	0xbd505fcb	-0.050872605
104	0xbe9febe3	-0.31234655
105	0x3c1c736b	0.009549002
106	0x3dbf7520	0.09348512
107	0x3d4eea8e	0.050516658
108	0xbd79a8ac	-0.060951874
109	0xbd70faa5	-0.058832783
110	0xbddb774e	-0.10716115
111	0xbd33bef3	-0.043883275
112	0xbc87af83	-0.016563183
113	0x3d1f9f34	0.038970187
114	0xbd459df2	-0.04824633
115	0xbddcf091	-0.10788072
116	0x3db766c5	0.089551486
117	0x3d7d6528	0.06186405
118	0x3dcdd671	0.10050667
119	0x3e007fdb	0.12548773
120	0x3d729c5d	0.05923115
121	0x3ded8c86	0.11599068
122	0xbe20693c	-0.15665144
123	0xbd534d10	-0.051587164
124	0xbd8322f3	-0.064031504
125	0xbcb0703e	-0.021537896
126	0xbd0b7cdd	-0.034054626
127	0x3cd7724b	0.026299616
128	0x3dc472bf	0.095921986
129	0xbc76372f	-0.015027805
130	0x3db4dd2c	0.08831248
131	0xbde78025	-0.113037385
132	0x3d8a4052	0.067505494
133	0x3e177e4d	0.14794274
134	0x3e92036e	0.28518242
135	0x3df84d72	0.121241465
136	0x3d604114	0.054749563
137	0xbe1ae1bf	-0.15125178
138	0xbd427e5d	-0.04748379
139	0x3d70f2a2	0.058825143
140	0x3d3f916e	0.046769552
141	0x3d595036	0.05305501
142	0xbe9b7eda	-0.30370218
143	0xbda0a499	-0.078438945
144	0x3ca1b13c	0.019737832
145	0x3e107e84	0.14110762
146	0xbe00393c	-0.12521833
147	0x3e52bf7a	0.20580855
148	0x3d949311	0.07254613
149	0x3e255a05	0.16147621
150	0x3e360738	0.17776191
151	0xbdd9722e	-0.10617481
152	0xbe032cc9	-0.12810053
153	0xbcc03698	-0.023463532
154	0x3de2a494	0.11066547
155	0x3e2cb491	0.16865756
156	0x3e05a887	0.1305257
157	0x3dc16175	0.094424166
158	0x3bdf14b7	0.0068078893
159	0x3d837bc0	0.06420088
160	0x3c889dfa	0.016676892
161	0x3dfc1336	0.12308352
162	0x3d88c417	0.06678026
163	0xbcf8c81c	-0.030368857
164	0xbdd61694	-0.10453525
165	0x3df435c3	0.11924317
166	0x3e2ef8f3	0.17087154
167	0x3b9753ea	0.0046181576
168	0x3e77af75	0.24188025
169	0xbd751100	-0.059830666
170	0xbab93976	-0.0014131505
171	0x3ce72d91	0.02821997
172	0x3d9e3c2a	0.07726319
173	0xbd84a9e8	-0.064777195
174	0x3ddf06c1	0.1088996
175	0xbd80b8bb	-0.062852345
176	0x3e015b8e	0.12632582
177	0xbdfb159d	-0.12259982
178	0x3d8ee0d0	0.06976473
179	0xbda973a7	-0.08274012
180	0x3e1e1818	0.15438879
181	0x3e46c607	0.19411479
182	0x3d1f3fd2	0.038879223
183	0xbbdcbc89	-0.0067363423
184	0x3bb931c7	0.005651686
185	0x3d1a4d5b	0.03767143
186	0x3ca7b635	0.020472625
187	0x3e359cbc	0.1773557
188	0x3e2e8d74	0.17046148
189	0x3dee5e00	0.11639023
190	0x3e4845ea	0.1955792
191	0x3ea270e2	0.31726748
192	0xbdc5b241	-0.0965314
193	0xbccdd636	-0.025126558
194	0x3e26e011	0.16296412
195	0x3d380f1c	0.044936284
196	0x3d7f4c21	0.06232846
197	0x3e03e9f2	0.12882212
198	0xbdebbb6d	-0.11510358
199	0xbe0b0f20	-0.13579988
200	0xbd107594	-0.03526838
201	0xbc50abce	-0.012736274
202	0xbd9690b9	-0.073518224
203	0x3df34b68	0.11879617
204	0xbd8d5f43	-0.06902935
205	0x3d7b3928	0.061333805
206	0xbdfaf288	-0.122532904
207	0xbdb97941	-0.090563305
208	0x3cff9076	0.031196814
209	0x3dcb2509	0.09919173
210	0xbe210a3e	-0.15726563
211	0x3d9907e0	0.07472205
212	0x3dd5cbe1	0.104392774
213	0x3d9f749e	0.07785915
214	0xbe5c18f1	-0.2149389
215	0x3b0279ab	0.0019908946
216	0xbd594297	-0.05304202
217	0x3da1b9d5	0.07896773
218	0xbc1bc5dc	-0.009507623
219	0xbdf247df	-0.118301146
220	0x3db7740a	0.089576796
221	0xbdee013c	-0.11621329
222	0xbdb1a2b7	-0.086736135
223	0xbd69d376	-0.05708643
224	0x3d781b50	0.060572922
225	0x3d8d085f	0.06886362
226	0xbde4e912	-0.11177267
227	0xbe0264d3	-0.12733774
228	0xbe597aaa	-0.21238199
229	0xbd48e248	-0.049043924
230	0x3dfbe9c0	0.12300444
231	0x3e0ac9e3	0.13553576
232	0x3b6e635f	0.0036375148
233	0x3d69272f	0.056922134
234	0x3db4b80c	0.08824167
235	0xbd99efc6	-0.07516436
236	0xbd1e65be	-0.038671248
237	0xbe164faf	-0.14678834
238	0xbda309c1	-0.07960845
239	0xbdcba93a	-0.09944387
240	0xbd1f7475	-0.03892942
241	0xbdf7d5b3	-0.12101307
242	0x3c037d87	0.0080255335
243	0xbda056d5	-0.07829062
244	0x3c8ef030	0.017448515
245	0xbccc0294	-0.024903573
246	0xbdd226eb	-0.10261329
247	0xbddfb4b8	-0.10923141
248	0xbdf8eccf	-0.12154543
249	0x3d8caca5	0.06868867
250	0x3dd69c20	0.10478997
251	0xbd6a3c54	-0.05718644
252	0x3ca1613b	0.019699683
253	0x3d934a7d	0.07191942
254	0x3d823ce6	0.06359272
255	0x3def280c	0.1167756

blocks.1.beta f4 [1, 64, 1, 1]
0	0xbda7af19	-0.08187694
1	0xbda3ece7	-0.0800417
2	0x3de8643a	0.11347242
3	0x3dc8b469	0.098000355
4	0x3d9ca8f8	0.07649416
5	0x3d7c2a7a	0.061563946
6	0xbd79144f	-0.060810383
7	0x3da0ee52	0.07857956
8	0xbd30be44	-0.0431502
9	0xbd92516c	-0.07144436
10	0x3b8bb84f	0.0042639147
11	0x3d938d82	0.07204725
12	0x3d079055	0.03309663
13	0xbd920dce	-0.07131539
14	0x3d98d032	0.07461585
15	0xbd75cf46	-0.060012124
16	0x3da1c73e	0.078993306
17	0xbd822ab6	-0.06355803
18	0x3db07929	0.086168595
19	0xbd2da14e	-0.04239016
20	0xbd5b91d1	-0.05360586
21	0xbd8cdc71	-0.06877983
22	0x3d9b4a8a	0.075825766
23	0x3d14a079	0.03628585
24	0xbd8c76c1	-0.06858588
25	0xbd940989	-0.07228381
26	0x3c9e9da7	0.019362284
27	0x3d1febc5	0.039043207
28	0xbd358919	-0.0443202
29	0xbd1b038a	-0.037845172
30	0x3d9780f6	0.07397644
31	0xbcafacf3	-0.021444773
32	0xbdd4f292	-0.10397829
33	0x3d8661d5	0.06561629
34	0xbd3fc5c8	-0.04681948
35	0x3d07b19e	0.033128373
36	0x3e08aecb	0.13347928
37	0x3dd4b0ae	0.103852615
38	0x3d14230b	0.036166232
39	0xbe14ce48	-0.14531815
40	0xbd64c368	-0.055850416
41	0x3db5ddec	0.08880219
42	0x3cd74b12	0.026280914
43	0xbd5cebda	-0.053935863
44	0xbdcd8a83	-0.10036185
45	0x3d3f966b	0.04677431
46	0xbd236a1f	-0.039896127
47	0xbd28f0dc	-0.041245326
48	0x3d9aae13	0.07552733
49	0xbdbfe0e1	-0.09369064
50	0x3d816f80	0.06320095
51	0xbda0e2cd	-0.07855759
52	0xbd602a29	-0.054727707
53	0xbd54094f	-0.05176669
54	0xbd73a8e0	-0.059487224
55	0xbd99c7d9	-0.07508821
56	0xbd745706	-0.059653305
57	0xbe07bc38	-0.13255394
58	0xbd889414	-0.06668869
59	0xbd758195	-0.059938032
60	0xbdad4481	-0.08460332
61	0xbdac4eb2	-0.084134474
62	0xbd0069c8	-0.03135088
63	0xbd85fdc6	-0.06542544

blocks.1.gamma f4 [1, 64, 1, 1]
0	0x00000000	0.0
1	0x00000000	0.0
2	0x00000000	0.0
3	0x00000000	0.0
4	0x00000000	0.0
5	0x00000000	0.0
6	0x00000000	0.0
7	0x00000000	0.0
8	0x00000000	0.0
9	0x00000000	0.0
10	0x00000000	0.0
11	0x00000000	0.0
12	0x00000000	0.0
13	0x00000000	0.0
14	0x00000000	0.0
15	0x00000000	0.0
16	0x00000000	0.0
17	0x00000000	0.0
18	0x00000000	0.0
19	0x00000000	0.0
20	0x00000000	0.0
21	0x00000000	0.0
22	0x00000000	0.0
23	0x00000000	0.0
24	0x00000000	0.0
25	0x00000000	0.0
26	0x00000000	0.0
27	0x00000000	0.0
28	0x00000000	0.0
29	0x00000000	0.0
30	0x00000000	0.0
31	0x00000000	0.0
32	0x00000000	0.0
33	0x00000000	0.0
34	0x00000000	0.0
35	0x00000000	0.0
36	0x00000000	0.0
37	0x00000000	0.0
38	0x00000000	0.0
39	0x00000000	0.0
40	0x00000000	0.0
41	0x00000000	0.0
42	0x00000000	0.0
43	0x00000000	0.0
44	0x00000000	0.0
45	0x00000000	0.0
46	0x00000000	0.0
47	0x00000000	0.0
48	0x00000000	0.0
49	0x00000000	0.0
50	0x00000000	0.0
51	0x00000000	0.0
52	0x00000000	0.0
53	0x00000000	0.0
54	0x00000000	0.0
55	0x00000000	0.0
56	0x00000000	0.0
57	0x00000000	0.0
58	0x00000000	0.0
59	0x00000000	0.0
60	0x00000000	0.0
61	0x00000000	0.0
62	0x00000000	0.0
63	0x00000000	0.0

blocks.1.conv1.weight f4 [64, 64, 1, 1]
0	0xbd4d6e8e	-0.05015426
1	0x3dd317e7	0.103072934
2	0xbd92f3ba	-0.071753934
3	0x3d2fa4f0	0.042881906
4	0x3d95cf7c	0.07314965
5	0xbd2d53cd	-0.042316247
6	0x3e26515e	0.16241977
7	0x3ad1ce52	0.0016006923
8	0xbd0c3d37	-0.034238067
9	0x3df960a6	0.12176637
10	0x3c9ebf16	0.019378226
11	0x3cbe9561	0.023264589
12	0xbd0f983d	-0.035057295
13	0xbe1ea0fa	-0.15491095
14	0xbd672273	-0.056429338
15	0x3db76060	0.08953929
16	0x3de3e395	0.11127392
17	0x3de29bb8	0.11064857
18	0x3da63a1f	0.081165545
19	0xbd6de950	-0.058083832
20	0xbd747ccd	-0.05968933
21	0x3d136de7	0.035993483
22	0x3c91dd0a	0.017805595
23	0xbc1bdbcd	-0.009512854
24	0x3dd0e2cb	0.10199507
25	0x3d854ac6	0.065084025
26	0xbe08daa2	-0.13364652
27	0x3d9ca883	0.076493286
28	0x3da75d6e	0.08172117
29	0x3d970e87	0.07375818
30	0xbc63d9fd	-0.013906953
31	0xbd4bdb8f	-0.049769934
32	0xbd63e2e5	-0.055636305
33	0x3e0653a3	0.13117842
34	0x3da714cf	0.08158266
35	0x3b43e7d4	0.002989282
36	0x3d8681c3	0.06567719
37	0xbb47cfd2	-0.003048886
38	0x3df4fae4	0.11961916
39	0xbc86f9a2	-0.016476456
40	0xbda2b481	-0.07944585
41	0x3d95556a	0.07291682
42	0x3de583bf	0.11206769
43	0x3d7ece01	0.06220818
44	0xbdc1226e	-0.09430395
45	0xbdc35268	-0.09537202
46	0xbe0f61b1	-0.1400211
47	0x3ca8fa74	0.020627238
48	0x3e3e4ac4	0.18583208
49	0x3dbc9d7e	0.09209727
50	0x3d7d9191	0.0619064
51	0x3d6bb58c	0.057546183
52	0x3d2b72e4	0.041857615
53	0xbdfeebcc	-0.124473184
54	0x3d7e7981	0.062127594
55	0xbdcadf69	-0.09905893
56	0x3dc45df0	0.0958823
57	0xbd9754c7	-0.07389217
58	0xbd8f8f85	-0.07009796
59	0x3d3c1847	0.04592159
60	0xbcef95ba	-0.0292462
61	0x3e299653	0.1656125
62	0xbd89203f	-0.066956036
63	0xbae9d23f	-0.0017839147
64	0xb8ebd86f	-0.00011245987
65	0x3d8dbf09	0.06921203
66	0xbd9bbae8	-0.07604009
67	0xbcc7271b	-0.02431064
68	0x3dbc5b16	0.09197061
69	0x3db620d6	0.08892982
70	0xbdc2a690	-0.095044255
71	0x3d3e9b50	0.046534836
72	0x3e0ccb89	0.13749518
73	0xbd948fd1	-0.07253993
74	0x3ccc9ca0	0.024977028
75	0xba2f6f78	-0.00066923304
76	0xbd5e658e	-0.05429607
77	0x3e2c8b6b	0.16850059
78	0xbdee8140	-0.11645746
79	0x3d20d494	0.03926523
80	0xbd100b3a	-0.035166956
81	0xbda6021c	-0.08105871
82	0x3e127f9f	0.14306496
83	0xbdaead24	-0.08529118
84	0xbc8fe7a6	-0.017566513
85	0xbe07798d	-0.13229962
86	0x3db5e3f6	0.08881371
87	0x3b943b47	0.004523668
88	0xbc7bbc3f	-0.015364706
89	0x3e1bde4d	0.1522152
90	0x3bf64eb1	0.007516705
91	0x3ce9b966	0.028530788
92	0x3d2996b5	0.04140349
93	0x3d761932	0.060082622
94	0x3d0c7ebc	0.03430055
95	0xbdcc67af	-0.099807136
96	0x3d96669e	0.073437914
97	0xbd8a63fa	-0.0675735
98	0x3dbe6e06	0.09298329
99	0x3da6cb3f	0.08144235
100	0x3dc5033a	0.09619756
101	0x3d786858	0.060646385
102	0xbdee525b	-0.11636802
103	0x3cc1c110	0.02365163
104	0xba72f7e6	-0.0009268507
105	0xbde85e7d	-0.11346147
106	0xbd994c65	-0.07485274
107	0x3e27220f	0.16321586
108	0x3db47121	0.0881064
109	0xbb2e4383	-0.0026590533
110	0x3d876278	0.06610578
111	0x3d7b17c9	0.06130198
112	0x3d188e98	0.037245363
113	0xbd6e2f54	-0.058150604
114	0x3ca3289a	0.019916821
115	0xbc0998b7	-0.008398226
116	0xbd7b9c3a	-0.061428286
117	0x3d7f2a23	0.062296044
118	0xbd926ad5	-0.07149283
119	0x3daf5bd2	0.08562435
120	0x3ba75415	0.005106459
121	0x3de54f1e	0.11196731
122	0x3de26ad5	0.11055533
123	0xbe1bd614	-0.15218383
124	0x3dcbab88	0.09944826
125	0xbd1c2f1d	-0.03813087
126	0x3de37969	0.111071415
127	0xbdd441c5	-0.10364107
128	0x3d8528cc	0.06501922
129	0x3dafd7d0	0.08586085
130	0x3d48020b	0.048830073
131	0x3db19422	0.08670832
132	0xbb84fc37	-0.0040583867
133	0xbdccd60d	-0.100017644
134	0xbe0fe469	-0.14051975
135	0x3d8c0244	0.0683637
136	0x3aca52be	0.0015436036
137	0xbe0228b5	-0.12710841
138	0xbdc0b2d5	-0.094091095
139	0xbdc360b0	-0.09539926
140	0x3e0099bb	0.12558644
141	0xbd898096	-0.06713979
142	0x3d5182fb	0.051150303
143	0xbdde86c6	-0.1086555
144	0x3ddced97	0.10787504
145	0xbb87e9b7	-0.004147734
146	0x3c266e0f	0.010158076
147	0xbd88c4ff	-0.06678199
148	0x3b106d8d	0.0022037954
149	0x3cb2ded3	0.021834766
150	0x3d856b54	0.06514612
151	0xbcbe88f0	-0.023258656
152	0xbe1a16ed	-0.15047808
153	0x3df3d967	0.119067006
154	0xbca3f3cc	-0.020013712
155	0xbc7425fd	-0.014901635
156	0xbdbad8cb	-0.09123381
157	0x3c75bea6	0.014999067
158	0xbc643b20	-0.013930112
159	0x3d9ce939	0.07661671
160	0xbd288b74	-0.041148618
161	0xbd293381	-0.041308884
162	0x3b1f5d2a	0.0024317005
163	0xbc952281	-0.01820493
164	0x3dede127	0.1161521
165	0x3d98ca5c	0.07460472
166	0x3d399903	0.04531194
167	0xbc132889	-0.008981832
168	0x3dd172cd	0.10226975
169	0xbdeb2bbe	-0.114829525
170	0x3d57d6c1	0.05269504
171	0x3c603c4a	0.013686249
172	0x3e0ec47b	0.13942139
173	0x3c7b462a	0.015336553
174	0x3e2f62e8	0.17127573
175	0x3e0b467e	0.1360111
176	0xbdc69f2a	-0.09698327
177	0xbdca8030	-0.09887731
178	0x3c4c5aa8	0.012472786
179	0xbdf48082	-0.119385734
180	0x3d8454ae	0.06461464
181	0x3c900aad	0.017583216
182	0x3db48aa5	0.08815507
183	0x3dcc1004	0.09963992
184	0x3d2f9b9c	0.04287301
185	0xbd84514d	-0.064608194
186	0x3e174efa	0.14776221
187	0xbd9b0c8b	-0.07570752
188	0xbd077c0c	-0.033077285
189	0x3b2e435c	0.0026590442
190	0x3d0edaac	0.03487651
191	0xbc84dd80	-0.0162189
192	0xbd899b8c	-0.06719121
193	0xbd80f9fd	-0.062976815
194	0xbdf1f9ca	-0.118152216
195	0xbdfa305f	-0.12216257
196	0x3dc35722	0.09538104
197	0xbcbe6179	-0.023239838
198	0x3c7557c5	0.014974539
199	0xbdc50e5e	-0.09621881
200	0x3e14d9f0	0.14536262
201	0xbdfa285e	-0.12214731
202	0xbdc46b49	-0.095907755
203	0xbd8dc211	-0.06921781
204	0x3e332b89	0.17497076
205	0x3dbd4795	0.09242169
206	0xbe1e9bb2	-0.1548908
207	0xbcbad393	-0.022805965
208	0x3d9f0306	0.077642485
209	0xbe1beacf	-0.15226291
210	0x3c54d0c9	0.012989231
211	0x3d0c952a	0.03432194
212	0xbdd3cc1e	-0.10341667
213	0xbccbaf3d	-0.024863834
214	0x3cfa3513	0.030542886
215	0xbd1de58f	-0.038549002
216	0xbe3db9a9	-0.18527855
217	0xbdda565a	-0.106610015
218	0xbdf89080	-0.12136936
219	0xbcb99461	-0.02265376
220	0x3d97595d	0.073900916
221	0xbd9c65e4	-0.076366216
222	0xbd051d60	-0.032498717
223	0x3d9f875b	0.07789489
224	0x3d3662b5	0.044527728
225	0xbe280d29	-0.1641127
226	0x3d1106b3	0.03540678
227	0xbd2ce2a9	-0.042208347
228	0xbd296927	-0.041360047
229	0xbdd39508	-0.1033116
230	0x3d9ef009	0.07760627
231	0xbd58eb71	-0.05295891
232	0x3e14c29e	0.14527366
233	0xbd01d93a	-0.031701304
234	0xbe19350d	-0.14961644
235	0x3e27bcd8	0.16380632
236	0x3dcb2220	0.09918618
237	0x3d085687	0.033285644
238	0x3c0a8aec	0.008455973
239	0x3cd8e160	0.026474655
240	0xbd7b7ce3	-0.061398398
241	0xbe02943e	-0.12751862
242	0x3df188d8	0.11793679
243	0xbd648410	-0.055790007
244	0xbcc79b26	-0.024365973
245	0xbd486411	-0.048923556
246	0x3e0a6d7f	0.13518332
247	0xbdfb5689	-0.12272365
248	0x3e07e4e2	0.13270906
249	0x3da70ea1	0.08157087
250	0x3d98e429	0.07465393
251	0xbe09eeab	-0.13469951
252	0x3d0b4bc3	0.0340078
253	0xbd29c7fd	-0.04145049
254	0x3de96eb6	0.113980696
255	0x3cdaf242	0.026726846

blocks.1.conv2.weight f4 [64, 1, 3, 3]
0	0xbe65deb2	-0.22448233
1	0xbe00813c	-0.12549299
2	0xbdac4fba	-0.08413644
3	0x3e1bb2dd	0.1520495
4	0xbe7e8159	-0.2485403
5	0xbdafe973	-0.08589449
6	0x3d51b687	0.051199462
7	0x3defa652	0.11701645
8	0x3d1728f9	0.03690431
9	0x3e987157	0.2977397
10	0x3e9f0e65	0.3106567
11	0x3defdc45	0.11711935
12	0x3ea4d5b1	0.32194284
13	0x3e0c90ed	0.1372716
14	0xbd88c1ca	-0.06677587
15	0xbe00bbbd	-0.12571616
16	0x3eb3b8be	0.35101885
17	0xbe438f81	-0.19097711
18	0x3d2b348a	0.041798152
19	0x3e219449	0.15779223
20	0xbd7624e0	-0.06009376
21	0x3eb345ba	0.35014135
22	0x3d875925	0.066088
23	0x3e13830d	0.1440546
24	0x3c3b1e42	0.011420788
25	0x3df1fa59	0.11815328
26	0x3e3beb66	0.18351516
27	0xbda0ff71	-0.078612216
28	0x3eb1c688	0.3472178
29	0xbe4c315e	-0.19940707
30	0x3dc224f3	0.09479704
31	0x3d01949a	0.031635858
32	0xbe19e712	-0.15029553
33	0x3eba178b	0.36346087
34	0xbe6cf614	-0.23140746
35	0x3e522171	0.2052057
36	0x3e3b614f	0.18298839
37	0x3d133a20	0.035944104
38	0xbe71b307	-0.2360345
39	0xbd07e732	-0.03317947
40	0x3e9fc9e6	0.31208724
41	0x3e948e45	0.29014793
42	0xbe0a2bfb	-0.1349334
43	0x3da572c1	0.08078528
44	0x3e73959a	0.23787537
45	0xbea31054	-0.31848395
46	0xbe9882f8	-0.2978742
47	0x3e09c541	0.13454153
48	0x3df1c88f	0.11805832
49	0xbdfc1eae	-0.12310539
50	0xbe03077a	-0.12795821
51	0xbe5ae87a	-0.21377745
52	0x3e851eca	0.26000053
53	0x3e856e66	0.2606079
54	0x3da87aa0	0.08226514
55	0xbd064fb3	-0.03279085
56	0xbe03c71f	-0.12868927
57	0xbd78bfd5	-0.06072982
58	0x3e0c1f6e	0.13683864
59	0xbe6c7997	-0.23093258
60	0x3d0a597e	0.033776753
61	0xbeb5264b	-0.35380778
62	0xbe612c07	-0.21989451
63	0xbddfcafe	-0.109273896
64	0xbdee8561	-0.11646534
65	0xbe2ee54e	-0.1707966
66	0x3cf0b416	0.029382747
67	0x3e6174a4	0.22017151
68	0xbe60c635	-0.2195061
69	0xbde8ccfe	-0.11367224
70	0x3e4e5345	0.20148952
71	0x3e95bbfc	0.29244983
72	0x3c5956de	0.01326534
73	0xbdc94270	-0.09827125
74	0xbc3cdb78	-0.011526935
75	0xbe9234c5	-0.28555885
76	0x3d6c6683	0.05771495
77	0x3e809c50	0.25119257
78	0xbe9d6799	-0.307431
79	0xbe927416	-0.28604192
80	0x3e96157c	0.29313266
81	0x3eb26c82	0.3484841
82	0x3ec3ce6e	0.3824343
83	0x3d4f470c	0.050604865
84	0xbe66ff3a	-0.22558299
85	0x3e29f128	0.165959
86	0x3eb6fe9c	0.35741127
87	0xbe635678	-0.22200954
88	0xbe5b2d01	-0.21403886
89	0xbe0d5171	-0.13800599
90	0x3e0e3d56	0.13890585
91	0x3e82b65a	0.25529748
92	0xbe854aec	-0.26033723
93	0x3ceb526b	0.028725823
94	0x3eae8d18	0.3409202
95	0x3e2b8d57	0.16753136
96	0xbdb804ae	-0.089852676
97	0xbe403e7c	-0.18773836
98	0x3e08cfde	0.13360545
99	0xbe9a76de	-0.30168813
100	0x3c0be893	0.008539337
101	0xbd198df2	-0.037488885
102	0xbd2daa67	-0.042398836
103	0x3e8b8f0f	0.27257583
104	0xbeb0cf54	-0.3453318
105	0xbe9008a8	-0.28131604
106	0xbe9aaf41	-0.30211833
107	0x3db7f254	0.08981767
108	0xbe9db1cf	-0.3079972
109	0xbda7d988	-0.08195788
110	0xbdb4adb3	-0.08822193
111	0xbe32b716	-0.17452654
112	0x3e426549	0.1898395
113	0xbe2e3f88	-0.17016423
114	0xbe9dc322	-0.30812937
115	0xbebde633	-0.3708969
116	0xbea1ecc3	-0.31625947
117	0x3eb286d5	0.34868494
118	0x3ce4ae38	0.027915105
119	0x3d1da4f0	0.038487375
120	0x3eaf782d	0.34271374
121	0x3ebb1820	0.36541843
122	0x3dbd5def	0.09246432
123	0xbdee6068	-0.11639482
124	0xbdab5d2d	-0.08367381
125	0x3dc70838	0.097183645
126	0x3e209537	0.15681921
127	0x3e4f459f	0.20241402
128	0x3d524e9b	0.051344495
129	0xbe17ac71	-0.14811875
130	0xbe57ffea	-0.21093717
131	0xbe940df8	-0.28916907
132	0xbeb883d0	-0.36038065
133	0xbe2de3c0	-0.16981411
134	0xbeae4536	-0.3403718
135	0xbe6a39a6	-0.22873554
136	0xbea5b775	-0.3236653
137	0xbdd19927	-0.102342896
138	0x3e309b99	0.17246856
139	0x3e8f8794	0.28033125
140	0x3e58910d	0.21149082
141	0xbd72a564	-0.05923976
142	0xbea8ff94	-0.3300749
143	0xbdcbb09d	-0.09945796
144	0xbdc06ccb	-0.093957506
145	0xbe9af7b6	-0.30267113
146	0xbea4ca58	-0.32185626
147	0xbea490b0	-0.32141638
148	0xbe9ab475	-0.30215803
149	0x3deba50b	0.11506089
150	0xbe920704	-0.28520977
151	0x3d5223a0	0.051303506
152	0xbe865494	-0.26236403
153	0xbeb603c1	-0.3554974
154	0xbe7d8744	-0.24758631
155	0x3e77be2f	0.24193643
156	0xbeb124ae	-0.34598297
157	0xbe74ffa7	-0.23925649
158	0xbeb194af	-0.3468375
159	0x3d799528	0.060933262
160	0xbe83cfa7	-0.25744364
161	0xbe15b533	-0.14619903
162	0x3ec48172	0.3838001
163	0x3db9112d	0.09036479
164	0x3e21f8c6	0.15817556
165	0x3e3f20d0	0.1866486
166	0x3ec754c7	0.38931867
167	0x3e5229aa	0.20523706
168	0x3c8010f9	0.015633093
169	0x3da5d04d	0.08096371
170	0x3e6a7650	0.22896695
171	0x3e4aa80c	0.19790667
172	0x3c80c4e2	0.015718881
173	0x3dfba3cd	0.12287102
174	0x3e16d929	0.14731278
175	0x3daf4b16	0.085592434
176	0x3e3312b2	0.174876
177	0x3e9f456b	0.3110765
178	0x3e668d24	0.22514778
179	0xbe653ea9	-0.22387184
180	0xbe0ccf5f	-0.13750981
181	0x3d0955ef	0.03352922
182	0xbddb5829	-0.107101746
183	0x3cc9631e	0.024583396
184	0x3cf1665a	0.02946775
185	0x3d85ece3	0.06539323
186	0x3e79f37c	0.24409288
187	0xbeadf1fe	-0.33973688
188	0x3e3f29dc	0.18668312
189	0x3e24ffab	0.16113155
190	0xbda36269	-0.079777546
191	0xbad3eba2	-0.0016168247
192	0xbe0c46a0	-0.13698816
193	0xbe8d215b	-0.2756451
194	0xbeaaa529	-0.33329132
195	0x3dc2d552	0.09513344
196	0x3e049121	0.12945987
197	0xbe3b7eaf	-0.18310045
198	0x3e66b5a1	0.22530223
199	0xbe7c7070	-0.24652267
200	0x3e54e441	0.20790197
201	0xbe7c99e7	-0.24668084
202	0xbe282ad9	-0.16422595
203	0x3dd2408c	0.102662176
204	0xbe9d8f16	-0.30773228
205	0xbe54b728	-0.20772994
206	0xbdb9c34c	-0.09070453
207	0xbe6f2ea3	-0.23357634
208	0xbe9be942	-0.304514
209	0xbe1252b9	-0.14289369
210	0xbdb3ee3c	-0.08785674
211	0xbdb74181	-0.08948041
212	0xba15014d	-0.0005684093
213	0xbde791be	-0.11307095
214	0xbe5287e4	-0.2055965
215	0xbd45ed70	-0.04832214
216	0xbe6cddc8	-0.23131478
217	0xbe94135d	-0.28921023
218	0x3e871e77	0.2639043
219	0xbeacc0df	-0.337409
220	0xbd3301ed	-0.04370301
221	0xbe01f663	-0.12691645
222	0xbdbfb4ed	-0.09360681
223	0x3e0c4101	0.13696672
224	0x3e843fa6	0.2582981
225	0xbe2b97d7	-0.16757141
226	0xbd490dbd	-0.049085367
227	0xbe6f9927	-0.23398267
228	0x3e3150ff	0.17316054
229	0x3e39a366	0.18128738
230	0x3e8a7357	0.27041122
231	0x3e750392	0.23927143
232	0xbafef78c	-0.0019452437
233	0x3dd1fb49	0.10253007
234	0xbe822c81	-0.2542458
235	0x3e2c45e4	0.16823536
236	0xbe8b9887	-0.27264807
237	0xbe23d3ef	-0.15998815
238	0xbeace9ac	-0.33772027
239	0xbe23622a	-0.15955415
240	0x3e152180	0.1456356
241	0x3e23dafd	0.16001506
242	0x3e9585f2	0.29203755
243	0xbd62d0fa	-0.055375077
244	0x3eaa92fb	0.33315262
245	0x3ec9162f	0.39274737
246	0x3e8c362a	0.27385074
247	0x3ebea8be	0.37238115
248	0x3d9abc59	0.07555456
249	0x3eaa47d0	0.33257914
250	0x3e276101	0.16345598
251	0x3eb85259	0.36000326
252	0xbdfbc157	-0.12292736
253	0x3eb94a66	0.36189574
254	0x3e4d2320	0.2003293
255	0x3dbcd3b2	0.09220065
